pytorch_learning/MathorCup/checkpoints/abc/ad.pth (torch, 2511 bytes, 3 tensors)

weight f4 [4, 2]
2.6978183 -3.1781206 0.3959752 0.45200115 3.1765416 3.829919 -0.13819966 5.4676285
00000000: 0ea9 2c40 5466 4bc0 43bd ca3e b26c e73e
00000010: 754c 4b40 651d 7540 3684 0dbe d0f6 ae40

bias f4 [4]
0.15666448 -1.2386227 0.27973425 -0.16282734
00000000: a76c 203e 308b 9ebf 5439 8f3e 36bc 26be

weight f4 [1, 4]
4.4350514 -1.6139961 -3.9611812 6.668926
00000000: f1eb 8d40 6d97 cebf fe83 7dc0 d767 d540
