pytorch_learning/net_params.pkl (torch, 1871 bytes, 4 tensors)

0.weight f4 [10, 2]
0	0xbe27d49e	-0.16389701
1	0x3f223925	0.63368446
2	0xbeb1b70b	-0.34709963
3	0xbf0bbd67	-0.5458588
4	0xbf258c04	-0.6466677
5	0xbe0d0cfa	-0.13774481
6	0xbdca9763	-0.09892156
7	0xbe8884a8	-0.2666371
8	0xbef4f149	-0.47840336
9	0xbe8f0fa1	-0.2794161
10	0xbea6e946	-0.32599849
11	0x3f3208b3	0.69544524
12	0x3e900782	0.28130728
13	0xbeea9d42	-0.45823103
14	0x3f3a636c	0.72807956
15	0x3e4bdd7a	0.19908705
16	0xbf2ba380	-0.67046356
17	0xbf1af280	-0.60526276
18	0xbf355db9	-0.70846134
19	0xbf08a3f1	-0.53375155

0.bias f4 [10]
0	0x3e5a4c1d	0.21318097
1	0x3e49d7b2	0.19711187
2	0xbe29718a	-0.16547218
3	0xbe3788dd	-0.17923303
4	0xbedcfee0	-0.43163204
5	0x3e80cde3	0.2515708
6	0x3f0b1f1d	0.5434435
7	0xbe4db48e	-0.20088407
8	0x3ecb28df	0.3967962
9	0x3e8720fe	0.2639236

2.weight f4 [2, 10]
0	0x3e8b6e88	0.27232766
1	0xbeb7236f	-0.3576922
2	0xbe9d5fb4	-0.30737078
3	0x3d10efb6	0.035384856
4	0xbe240336	-0.1601685
5	0xbd7aba07	-0.061212566
6	0xbe30f0cb	-0.17279355
7	0x3f0da42b	0.55328625
8	0xbeb92867	-0.36163637
9	0x3d7c5142	0.06160093
10	0xbe28cbb7	-0.16483961
11	0xbd2ae331	-0.041720573
12	0xbd018112	-0.03161723
13	0x3bf99d50	0.00761763
14	0x3e934d88	0.2877009
15	0xbec89a43	-0.39180192
16	0xbd14e228	-0.036348492
17	0xbe704692	-0.2346442
18	0x3e84677e	0.25860208
19	0x3eb52e62	0.3538695

2.bias f4 [2]
0	0x3e8a7d62	0.27048784
1	0xbce84127	-0.02835138
