pytorch_learning/MathorCup/nn1.pth (torch, 10927 bytes, 7 tensors)

weight f4 [20, 1]
00000000: b4cb a8bf eb65 0c3c d691 37be d85c 993f
00000010: 4f75 84bf a8b0 8c3f 7829 c43f 7b7d b2bf
00000020: b109 86bf 65ea e2bf 263d b1bf d45e ecbf
00000030: 3597 b93f a0a4 273e 6dd1 763f 8f33 3dbe
00000040: b282 d4bf f575 f1bf 3552 853f ed41 0240
-1.3187165 0.008569221 -0.17926726 1.1981459 -1.03483 1.0991411 1.5325155 -1.3944544
-1.0471708 -1.7727782 -1.3846786 -1.8466439 1.449927 0.16371393 0.9641331 -0.184767
-1.6602385 -1.8864123 1.0415713 2.0352738

bias f4 [20]
00000000: 82fa 2bc0 6a24 bfbe 7de0 b640 4050 42c0
00000010: 9706 4dc0 8882 3fc0 2d1e 6240 0a97 2fc0
00000020: cc60 3fc0 63f8 32c0 a1fb 39c0 e49d 9840
00000030: f23e 09bf edda a740 aa72 49c0 55f8 ab40
00000040: 22fd 9840 522e 9f40 1ad4 47c0 3db6 4e40
-2.6871648 -0.3733247 5.7149034 -3.036148 -3.2035272 -2.992342 3.5330918 -2.7435937
-2.990283 -2.7964103 -2.9059832 4.7692738 -0.5361167 5.2454743 -3.1476235 5.374064
4.7809 4.9744043 -3.1223207 3.229873

weight f4 [40, 20]
00000000: dcc8 57c0 20f1 ed3c 6ad4 7f40 b124 4ac0
00000010: 83a1 68c0 85c3 54c0 c6ad 4a40 b1d7 48c0
00000020: 4a01 76c0 ef9d 47c0 f1b7 4dc0 8ac5 7440
00000030: ea54 333f 193f 8340 ea5f 4fc0 e1af 5c40
00000040: 6430 7640 dd67 7340 b13f 4bc0 9530 2e40
00000050: e110 d83f 435a 69be 5a48 cebe 47ae 9a3f
00000060: c41c de3f 4fe9 7a3f 5a40 b2be 3de0 d83f
00000070: a985 e13f acb1 aa3f 7dff d73f 6f56 5e3f
00000080: 3ee5 723f 4e3b 5bbf 41f3 a13f 1d36 cbbe
00000090: bf10 203f 4dc2 153f a2de 903f 081b 983e
000000a0: d81b 603d a329 54be 4053 543c 5835 34be
000000b0: b8ae 933c 8ae4 2b3e 29ff 27be 1038 cd3d
000000c0: 5cba be3d 06a0 2b3e 8cc7 0dbe 700b 1dbe
000000d0: c90b 17be 1065 00bc 90f7 db3c f8a1 8e3d
000000e0: 26f1 c6bd 0bd4 f9bd 8087 61bc 28d2 5abe
000000f0: 1618 18bf 4dd0 3fbd 2461 3d40 4853 7b3f
00000100: 907c 63bf 4e59 ac3f 3e5a 203f fc22 36bf
00000110: da39 51bf a474 e3bd 795a 65bf 0d9b 0b3f
00000120: 46a5 a33f e88f acbf 2999 7f3f cf99 4440
00000130: 7619 233f cef4 cc3e c725 9d3f 64e0 713f
00000140: e39d 11c0 43ee dc3d 2d6c 8940 9594 383f
00000150: 7aae 28c0 1296 453f 1c93 56be d0e3 1dc0
00000160: 558e 24c0 fea1 bfbf 340e 16c0 10d4 2040
00000170: cfed 123f 0765 c2bf 7f46 6e3f cfa9 8a40
00000180: 8e32 2740 e618 2640 350c 8c3f 4250 393e
00000190: 664b 663e 4634 5cbe 3a4f 95bf f6e6 19c0
000001a0: 06f2 483f 5967 1fc0 6f82 2a40 41b3 cb3e
000001b0: 063a 363f 195f 023f 63c4 113f 7297 c53e
000001c0: 3713 393e 5c27 8640 9b56 33c0 0d4d 5cbf
000001d0: d076 b93e e541 dd3e 8fb6 1dc0 d4ec 1e40
000001e0: f7a9 25c0 fdcf efbd ec7a 8740 70e3 323f
000001f0: 020d 21c0 7220 5c3f 539b 74be c826 13c0
00000200: e3c7 23c0 1dc5 bebf c8b2 11c0 62a2 2c40
00000210: d684 293f dc8b b4bf 9b85 403f 67dc 8d40
00000220: 0e85 2a40 9fb1 1840 7f05 403f b4f7 3cbe
00000230: aa83 353f 7612 ecbd 1d34 11bf e646 2fc0
00000240: 97e2 513f 48ab 35c0 a9e6 4540 6e75 053f
00000250: e7cc c83e 4f0d 9c3e 1e4b b23e 9737 eb3e
00000260: 5f1c 3b3f 0100 8840 fc54 3cc0 8fba 0abf
00000270: ff97 d93e adad bf3e 672c 38c0 4ae3 2540
00000280: ecc7 e4bf 2016 46bd e690 7940 1305 7c3f
00000290: d3ee 1ac0 0dd1 663f 377e 1fbf d40a e5bf
000002a0: 661e 13c0 682a 39bf 7a7b 02c0 e0e9 0240
000002b0: bd04 ee3e 36d6 debf 3e2e 803f 97f8 8140
000002c0: a726 0740 29f0 0a40 4ba2 883f 4468 b1be
000002d0: 1378 e43f 9acc 33be a50c fdbe 363a 7c3f
000002e0: 849c e93f 3276 913f 46b9 1c3d e4fe c83f
000002f0: 4f9a e93f 4191 be3f eec1 d23f 0d7b 423f
00000300: 22ee 933f 372a 26bf e653 8e3f 9e0b 2ebf
00000310: bd84 0e3f a194 4c3f 73af 9a3f 22e2 df3e
00000320: 6318 4d3e aeec 063d 6495 433e 5fcc 14bd
00000330: 98df f63d d352 4d3e 8e92 46be 5ee3 e4bd
00000340: ce9b 23be a530 7b3d e7f2 b7bd 7896 3d3c
00000350: 38d8 77be a6e2 6fbe 2b6d 8ebd c4d3 483d
00000360: 3a86 49be 1456 0fbe 54ef 6abc 8c56 5e3d
00000370: 7090 aa3d b6ff 89bd c04c b63c 60bb d8bb
00000380: c026 243e d5bf 61be 088d 27be 73bc 45be
00000390: 6f04 45be a6eb 563e a8ed 663d 50c4 0bbc
000003a0: 7493 853d 7f6b d5bd ee03 efbd ece5 f3bd
000003b0: 9c91 56be afc6 56be 409c 073e 68a7 30bd
000003c0: d2dd 173e 881f 1cbd 28f7 71bd 0071 253a
000003d0: 6027 5e3c a0c4 4a3d 3ec7 4ebe 41b1 13be
000003e0: f0c0 8dbd ca39 4d3e b4d0 b3bd a879 05bd
000003f0: 8e69 403e 2229 29be 2847 27be d842 343d
-3.3716345 0.029045641 3.9973397 -3.1584895 -3.634858 -3.3244336 3.1668563 -3.1381648
-3.8438287 -3.1190145 -3.214352 3.8245568 0.70051444 4.1014524 -3.2402291 3.4482348
3.8467035 3.8032143 -3.1757624 2.7217152 1.6880151 -0.22788338 -0.40289575 1.2084435
1.7352529 0.9801225 -0.3481472 1.6943432 1.7618915 1.3335471 1.6874844 0.8685064
0.94881046 -0.85637367 1.265236 -0.39689723 0.6252555 0.58499604 1.1317942 0.29708123
0.054714054 -0.20719008 0.0129593015 -0.17598474 0.018027648 0.167864 -0.1640593 0.10020459
0.09312889 0.16760263 -0.13845652 -0.15336394 -0.1475059 -0.007836595 0.026851445 0.06964487
-0.09713964 -0.12198647 -0.013765216 -0.21369231 -0.5941175 -0.04682951 2.959054 0.9817395
-0.8886194 1.3464754 0.626377 -0.7114713 -0.817289 -0.11106232 -0.89591175 0.54533464
1.2784812 -1.3481417 0.9984308 3.0718877 0.63710725 0.4003052 1.2277154 0.9448302
-2.2752616 0.10787632 4.294455 0.7210172 -2.6356492 0.77182114 -0.20954555 -2.4670296
-2.5711873 -1.4971311 -2.344617 2.5129433 0.5739412 -1.5187081 0.9307632 4.3332286
2.6124606 2.5952697 1.0941225 0.18097022 0.224897 -0.21504316 -1.1664803 -2.4047217
0.784943 -2.4906828 2.664211 0.39785197 0.71182287 0.5092636 0.5694029 0.38592106
0.18073736 4.1923046 -2.802161 -0.8605507 0.3622346 0.43214336 -2.4642675 2.4832048
-2.5884988 -0.117095925 4.233755 0.6987829 -2.516419 0.8598701 -0.23887376 -2.299242
-2.559075 -1.4903904 -2.276537 2.697411 0.66218317 -1.4105182 0.75203866 4.4331546
2.664371 2.3858411 0.75008386 -0.18453866 0.7090403 -0.11526959 -0.56720144 -2.7387023
0.81986374 -2.8385792 3.0922034 0.5213231 0.39218828 0.30478904 0.34822935 0.4594085
0.73090166 4.2500005 -2.942687 -0.54190916 0.42498776 0.37437192 -2.87771 2.5919976
-1.7873511 -0.048360944 3.899469 0.9844524 -2.4208267 0.90162736 -0.62301964 -1.789393
-2.2987304 -0.7233033 -2.0387864 2.0455246 0.4648799 -1.7409122 1.0014112 4.0615954
2.1117342 2.1709082 1.0674528 -0.3464986 1.7849144 -0.17558518 -0.4942371 0.9852632
1.825089 1.1364195 0.038262628 1.5702786 1.8250216 1.4888078 1.6465433 0.7596901
1.1557047 -0.64908165 1.1119354 -0.67986476 0.5567129 0.7991429 1.2084793 0.43727213
0.20028834 0.03294056 0.19099957 -0.036327716 0.12054366 0.20051126 -0.19391844 -0.11176179
-0.15977404 0.061325688 -0.08981877 0.011571519 -0.24203575 -0.23426303 -0.06954416 0.04903008
-0.1968011 -0.1399768 -0.014339287 0.054281756 0.083283305 -0.06738226 0.022253394 -0.0066141337
0.16030407 -0.22045834 -0.16362393 -0.19310169 -0.19239973 0.2098833 0.05637899 -0.008530691
0.06522265 -0.10420894 -0.116706714 -0.119090885 -0.20953983 -0.2097423 0.13243198 -0.0431284
0.14830711 -0.038116008 -0.059073597 0.0006311089 0.013559192 0.049503922 -0.20193192 -0.14423086
-0.069215655 0.20041576 -0.08780041 -0.032586724 0.18790266 -0.16519597 -0.16335738 0.04400906

bias f4 [40]
00000000: 8b49 5f40 4e19 a5bf 9ada 053e 80dc 79bf
00000010: ac99 56bf 6cbc 2a40 272f 30bf db3d 3d40
00000020: 85d0 80bf dcad c3bf bab6 923c 84b9 1dbe
00000030: 9cc3 11be 6cbc 8bbf 94b1 973f d6ae e63f
00000040: 6e9c 7d40 7973 3cbf 322a 4440 739c 56be
00000050: e3a5 11bf 38eb 23bf b10b 44bf dae6 cdbf
00000060: 4bf8 78bf 26b5 61bf 0798 4240 d83e 1ebf
00000070: 4736 a6bf 29bb 503e 308c 03bc 9cb8 4bbd
00000080: af23 4a40 1f3f 11bf 8a8b 21bf 7a9c a2bf
00000090: 93f8 3fbf 4e44 15bf a9d5 2d40 7c16 3040
3.4888637 -1.2898347 0.13071671 -0.9760208 -0.83828235 2.6677504 -0.6882195 2.9569004
-1.0063635 -1.5287433 0.017909396 -0.154028 -0.14234775 -1.0916877 1.1851068 1.8022106
3.9626727 -0.736137 3.0650754 -0.20958118 -0.5689375 -0.6403079 -0.7658034 -1.6086075
-0.97253865 -0.88167036 3.040529 -0.6181464 -1.2985314 0.20383896 -0.008029029 -0.049736604
3.158428 -0.5673694 -0.63103545 -1.2704003 -0.7498867 -0.5830735 2.7161658 2.7513723

weight f4 [20, 40]
00000000: e6ce db3f 294c 3b3f 2d52 143e 7412 c9bf
00000010: a74a 42c0 e9dd 883f 8660 47c0 0879 5c3f
00000020: c968 40c0 50dc 713f afef ff3d 2b54 1dbe
00000030: de11 e13d bcfa 04c0 d87a 7fc0 1e41 673f
00000040: 30d2 1e3e ace5 50c0 8d00 833f 368e 7fbd
00000050: 6269 b03f 6942 b43f e997 a93f 6a94 463f
00000060: e600 1fc0 e506 24c0 c83e 883f bb82 fc3e
00000070: 7e8e 303f e3f9 f1bd 1299 db3d 0037 65ba
00000080: b6bf a23f ef2b 903f 2405 4bc0 0fe9 563f
00000090: 0735 843f 8d83 3dc0 1a5f 903f afc6 7e3f
000000a0: a9a3 a7bd 8e3e a63d 1124 95bd 58a5 83bd
000000b0: 01ad c73d ee93 c5bd 2aa3 3abe 9be7 aabd
000000c0: ee52 bcbc a62f 9cbd 3fbc e2bd 0091 4fbc
000000d0: 845f 033d f6d1 9cbd c0d6 4f3c 9936 02be
000000e0: da02 4fbd 9cae f3bd 524f d83c 2ad4 d33d
000000f0: 4753 863d 6b62 1bbd 02f3 98bd 0d47 18be
00000100: d9bd 0dbe a249 a43a ddbb e9bd f486 bf3d
00000110: d69c 26be dc6f 0d3d 95a3 8bbd a6e5 e3bd
00000120: 1728 a03d b735 f93d c8d6 cbbc 5874 973c
00000130: 1f9f c1bd 29bb 763c ce06 0b3d 890e 5c3c
00000140: cc32 8ac0 cccc c03f 5074 4bbc 07b3 7c3f
00000150: 8a2c 583f 482f 13c0 32b9 683f 89b5 1ac0
00000160: ebec 833f 1f58 953f f4e9 7ebd 405b d8bb
00000170: 3080 753c 82c4 9b3f 2f05 0140 7d64 77bf
00000180: eabc 82bf f5dd 733f 5e2c 27c0 bf3c dbbd
00000190: 2a7b 343f 2ccf 373f 3bb4 5c3f e7a3 a23f
000001a0: 4b01 913f 7184 833f de55 0cc0 ebe4 d6be
000001b0: 7272 a73f 6087 aa3b 9640 eb3d 4b37 023e
000001c0: 8822 2dc0 1a97 273f 0ce5 3b3f b2f4 973f
000001d0: 2c3b 5e3f 2dfe 543f 4cca 1ac0 68d1 0ec0
000001e0: 65d4 94c0 800d a43f 4082 7e3c a3c3 083f
000001f0: 5d67 3c3f 3ab4 32c0 79e4 7f3f 5111 2fc0
00000200: c1cb a13f bde1 6d3f 818b b73d 7a1d d83d
00000210: 4cdd 7d3d 156a 763f bce4 4640 ca39 76bf
00000220: c773 2dc0 aa29 833f 7167 3ac0 161f afbd
00000230: 213e 54bd 3ebb d3bd a01b 013e 805c 983f
00000240: d61a 4d3f 26aa 743f e511 29c0 320b e53e
00000250: 5eb8 9f3f f6b7 9cbd e0ec 83bc 0072 803b
00000260: 5b9f 58c0 4e7b de3d 59b3 4b3f 76a4 ae3f
00000270: 9e9d b53e 89a4 5e3f 53c0 20c0 5bca 19c0
00000280: c9a5 3940 44ce 2340 4a1b 01be 57c6 53c0
00000290: 86ce 0ec0 1793 a63f 9068 06c0 8406 3f3f
000002a0: 818b cebf 5e3e 1a40 dd64 ccbd 449a 223d
000002b0: 37a5 123e 77bd 41c0 883d 83bf 45a0 3440
000002c0: 3b66 59bf 6cdf 06c0 a321 2c3f 2048 863b
000002d0: 8af3 913f c593 7f3f 0524 653f 15f3 2c40
000002e0: 12aa 1bc0 98be 0dc0 73ac ae3f 9bf2 5a40
000002f0: 2c2b 1c40 182a 7b3d f269 9fbd 6344 783d
00000300: e5a3 dd3d 5321 383f 59a1 0ac0 1122 2540
00000310: 9709 253f a81c 0bc0 bb5f 863f e149 a43f
00000320: 17cb 6dc0 4ecf 713f aaad f23d 4d2e 1140
00000330: c8bb 293f fe60 07bf 026a 043f 7a8c f9be
00000340: 3e80 fd3e 298e 8e3f 7551 d2bd 346e 9d3d
00000350: 9c79 20be 431c 0340 29f6 b3be 2f0f e2bf
00000360: 652e 8d3f a95e aa3e 01d4 edbe 557e 203e
00000370: 3a93 fd3f 9fb5 0d40 35cd 0040 e347 9c3f
00000380: bcc3 c13f e9a4 9e3f 71bd 6dbf 1825 eebf
00000390: 7956 a03f fbcd 363d ccfe debd d858 593d
000003a0: f936 723e 6c76 0940 124f 0e3f eb6e 5c3f
000003b0: 48e4 f23f e8ea 473f 34e1 66bf a1f3 67bf
000003c0: 2bac 1c40 a0d2 1a3f 06b2 b53d f43a fdbf
000003d0: 802b 62c0 d693 a53f d985 6fc0 3127 973f
000003e0: 13bb 6ac0 f102 3f3f 124a d63d dabf ddbd
000003f0: 7d16 073e 8793 37c0 f8ba a0c0 e79b 753f
1.7172515 0.73163086 0.14484473 -1.5708756 -3.0358064 1.0692722 -3.1152663 0.8612218
-3.0063956 0.94476795 0.12496888 -0.15364139 0.10989736 -2.0778036 -3.9918728 0.90333736
0.15509868 -3.264018 1.0234543 -0.062391482 1.378216 1.4082767 1.3249484 0.7757021
-2.4844298 -2.5629208 1.0644159 0.4931849 0.68967426 -0.1181524 0.10722555 -0.00087438524
1.2714756 1.1263407 -3.1721888 0.8394937 1.0328683 -2.9611542 1.1279023 0.9952192
-0.081855126 0.081174 -0.0728227 -0.06428021 0.09749795 -0.09647356 -0.18226305 -0.083449565
-0.022988763 -0.07626276 -0.11071061 -0.012668848 0.032073513 -0.07657234 0.012685478 -0.1271614
-0.05053983 -0.118985385 0.02640501 0.103432015 0.06558853 -0.037935656 -0.07468225 -0.14870854
-0.13841952 0.0012534151 -0.11412785 0.09351912 -0.16270766 0.034530506 -0.0681831 -0.11127786
0.078201465 0.121684484 -0.02488269 0.018488094 -0.09454178 0.015059271 0.033942036 0.0134312
-4.318701 1.5062499 -0.012417868 0.98710674 0.8444296 -2.2997608 0.90907586 -2.41733
1.0306677 1.1667517 -0.062234834 -0.0066026747 0.014984176 1.2169344 2.0159414 -0.9663771
-1.0213902 0.95260555 -2.612083 -0.10704946 0.70500433 0.71800494 0.8621251 1.2706269
1.132852 1.0274793 -2.192741 -0.41971526 1.3081801 0.0052041262 0.11486928 0.12716405
-2.7052326 0.6546494 0.7339637 1.187155 0.8680904 0.8320034 -2.4185972 -2.2315311
-4.650927 1.281662 0.015533984 0.5342352 0.7359522 -2.7922502 0.99957997 -2.735432
1.2640306 0.92922574 0.08962155 0.10552497 0.061978623 0.9625562 3.1077108 -0.9618193
-2.7101915 1.024709 -2.9125636 -0.08550851 -0.051817063 -0.10338448 0.12608194 1.1903229
0.80119073 0.95572126 -2.6417172 0.44735104 1.2478139 -0.07652275 -0.016104162 0.00391984
-3.3847263 0.10863362 0.7957054 1.364394 0.35471815 0.8696981 -2.5117385 -2.4029758
2.9007437 2.5594645 -0.12608066 -3.3089807 -2.2313552 1.3013638 -2.100132 0.7461932
-1.6136323 2.4100566 -0.09980176 0.0396979 0.14320837 -3.027189 -1.0253153 2.822282
-0.84921616 -2.1073866 0.67238826 0.0040979534 1.1402447 0.99834853 0.89508086 2.7023365
-2.4322553 -2.214758 1.3646377 3.4210575 2.440135 0.06131944 -0.07783879 0.060612094
0.10822276 0.7192585 -2.1660979 2.5802042 0.6446776 -2.173624 1.0497965 1.2835046
-3.7155206 0.94456947 0.1184953 2.268451 0.66302156 -0.52882373 0.51724255 -0.48739988
0.49511904 1.1137134 -0.10269443 0.07687035 -0.1567139 2.0486 -0.35148743 -1.7660884
1.1029783 0.33275345 -0.4645081 0.15673192 1.9810555 2.2142103 2.0125248 1.2209438
1.5137858 1.2394077 -0.9286719 -1.860507 1.2526389 0.044630032 -0.108884424 0.053063244
0.23653783 2.147853 0.555894 0.8610675 1.8975916 0.78092813 -0.9018738 -0.90606123
2.4480083 0.6047764 0.08871846 -1.9783616 -3.533905 1.2935741 -3.7425444 1.1808835
-3.667668 0.74613863 0.104633465 -0.108276084 0.13192172 -2.8683794 -5.0228233 0.95941013

bias f4 [20]
00000000: 257b 0e3e b136 b23d 1718 c3bf 666f dcbf
00000010: c600 d8be 5da6 3cbf cab2 ba3e cfaf dbbf
00000020: 5948 94bd ce36 ebbf dfc4 c9bf d14f c6bf
00000030: cfcd ab3d aa8c e63c 3173 bfbf 03c8 2c3d
00000040: b35a c4bf 3585 903e f084 993d 3b9a aabf
0.13914163 0.08701838 -1.5241727 -1.7221496 -0.4218809 -0.7369135 0.3646453 -1.7163028
-0.07240362 -1.83761 -1.5763205 -1.5493108 0.08388864 0.028143246 -1.4957029 0.042182934
-1.5340179 0.2822663 0.07496059 -1.3328317

weight f4 [1, 20]
00000000: 0a4a 37c0 9d6c acbd 496a 0740 d9a8 1e40
00000010: 5f28 5ec0 5682 f23f 1b46 3cc0 a8f4 2740
00000020: d953 0d3e d4e8 2640 cd54 2840 853a 2040
00000030: d931 16c0 5d01 2ec0 f38b 1e40 48b7 57c0
00000040: 8c7b 2440 75be 38c0 3afa 133e 09b5 0540
-2.863894 -0.08419154 2.1158621 2.4790556 -3.471214 1.8946025 -2.941779 2.6243076
0.13801517 2.6079607 2.6301758 2.5035717 -2.3467925 -2.7188332 2.4772918 -3.3705616
2.5700407 -2.8866246 0.14450923 2.0891745
