pytorch_learning/MathorCup/nn2.pth (torch, 11887 bytes, 8 tensors)

weight f4 [20, 1]
00000000: cd10 313f 7050 19be 5283 eebe 4df6 693f
00000010: c666 bb3e af68 ac3e 00fc f4ba f841 26bf
00000020: fedd 3a3f 182d 19bf 5eb6 9b3d d8c0 763f
00000030: 1f52 873e 07da 493f 9e8e edbe 66bb d1be
00000040: 3e91 2d3f 82c0 87bf f998 64bf e727 2fbf
0.6916626 -0.1497209 -0.46584564 0.9139145 0.36601847 0.33673617 -0.0018690825 -0.6494441
0.72994983 -0.5983443 0.07603143 0.96388006 0.2642984 0.7884831 -0.4639787 -0.40963286
0.67799747 -1.0605624 -0.8929592 -0.6842026

bias f4 [20]
00000000: 6e34 6d3f e621 72bf 7da1 153f 4c68 92bf
00000010: 50a9 8fbf 2e6b a33f c00e 65bd f5bb 573f
00000020: cfc8 70bf a473 45bd 1f0f 71bf d129 6ebf
00000030: c93b bd3f f0b4 be3f e310 9c3e a68d 033f
00000040: b9f3 823e 9925 6fbe 76a3 aebe 0a31 5e3f
0.92658126 -0.94582975 0.58449537 -1.1438079 -1.1223545 1.2767084 -0.05592227 0.84271175
-0.9405641 -0.048205987 -0.941637 -0.93032557 1.478387 1.4898968 0.30481634 0.51388013
0.2557657 -0.23354186 -0.34109086 0.8679358

weight f4 [40, 20]
00000000: e593 97bc ec7b 253e 78fd 7a3e c488 02be
00000010: ca27 c8bd 38a8 b13e 92e0 06be 8331 173e
00000020: 1e5a 003c 5f55 923d 6272 edbe 1f9f 32be
00000030: fec0 f53e bb7c 4d3e c0ee 423e a647 383e
00000040: 0531 95bd ec3c 553e c160 b33d a9e3 a43c
00000050: dd0f 1cbe 525c 113e 607f 2c3e 8ff4 523e
00000060: b928 1ebe 6ed4 87bd 80fa db3d 3703 133e
00000070: 6930 82bd e80f 82be d160 81be 8961 22be
00000080: 38f6 4cbe 5f65 31bd 82f1 a0be b215 433c
00000090: 94ec 41be 57f9 aabe eecd 4fbe 443d 5bbd
000000a0: 32a7 943a d8a7 cf3d 5d61 c4be 535f 4c3b
000000b0: 6510 babc 82a4 36be 7a3c 383e c327 10be
000000c0: 2101 d5bd 9165 a8be e3fa db3d 2afb 1abe
000000d0: 9a02 2c3d 9dc3 36be fda5 84be 748c 9fbe
000000e0: 8fb4 3c3e 5926 a9be e854 413d d9c5 a8be
000000f0: a362 bf3d 22c7 4b3e f4e1 003e 0173 7abe
00000100: 6b6b d43d 4808 0f3e f869 113d 664c c83e
00000110: d146 dabc f912 47bd 4973 d0bd bcd3 09be
00000120: e5bd db3e 844c 213d 419f a73e 03bf 123c
00000130: 80f1 ec3d f302 97bd e12e a63e 5758 0a3e
00000140: 0a89 46bd 6a41 31be 1fcc d03e f120 19be
00000150: 76b4 23be 3736 9e3e 9eaf 44be f394 ab3e
00000160: 190c abbe 978a f5bc ab5e 253b 496e d5be
00000170: 74ba 9e3e 8e63 73bc a511 f03d 0b9f e63e
00000180: affd e1be 1d69 0c3e 18d3 96bb 640a 573e
00000190: fa0a 9f3d eabc bdbd aff4 a1be 7a56 463e
000001a0: 0e40 f0bd 93ef 54be eca4 5b3e c39b c9be
000001b0: 24d0 fcbd dfbb 82be 11b0 a53e f23e 393e
000001c0: 4b92 39bd a8a5 51be 5436 983d 13b5 70bd
000001d0: b58a e6bd 3016 0ebe 9b6e 263e 0bbc b7be
000001e0: 3126 903d 8236 efbd 45c2 eabd 9cc7 ecbd
000001f0: a450 b03d dd25 4bbe 541d 423e 38ce cd3d
00000200: 57f6 823d 86d5 82be e4df 83bd 9eff ccbc
00000210: 6d36 d83c fc98 90be dffe 79be b11d 1ebe
00000220: d2ff 77be 432b ed3d 9fa9 f6bd f713 183e
00000230: 53d0 04bd 70cb 393e 7763 c93e f91b 6bbe
00000240: eccd f4bd 167e 713d 0e29 2c3e 3a17 063f
00000250: 045a 0c3d 2e12 bf3e 411b 24be 3d59 13be
00000260: 424d b33e 9dbd e8bd 6cd8 ce3b 2291 c23e
00000270: c9dd 89be ceae 913d 3326 81bd 8c83 073f
00000280: 26c9 52be a087 6c3d 2f08 f33e 8f2d 43be
00000290: 887c 48be 142b 553e a8d5 fcbc acd6 a53e
000002a0: e74a 1b3e 7f4d bb3d 5169 5e3d 30eb 0ebd
000002b0: e42c 703e 8c2a 2b3e efea 753e 5746 6e3e
000002c0: 6260 ae3d 5a4e a43e 0b57 a4bd d5ac 303e
000002d0: 0e71 903d 3a25 2d3e 7ac3 223e 8e67 6fbd
000002e0: c947 6abe 9b51 8e3e e095 53be 6875 b33e
000002f0: 9fda 93be 0407 8bbc 0939 31be f8e2 82be
00000300: da9e 113e 3f7e 98bd e04d 933e 7673 d03e
00000310: 3bf6 ccbe 7824 bb3e 7d70 463e 4d33 c03e
00000320: 1b36 1c3e 2039 bb3c 6ec7 eabe 08b6 9ebc
00000330: 04aa 2fbe 97af 1d3e a031 563d 2f6d ecbe
00000340: fd63 853d 4ad6 963d 1eeb be3d 0116 4f3e
00000350: 5148 d53d 814b ed3c d4a3 82be 4582 f4bd
00000360: 9802 243e 5ed4 7eba d079 36be cef3 99be
00000370: 345b c33d 7875 febc 3cb9 a13e eff4 da3d
00000380: d021 433d 3259 093e d00f df3d a21d 423e
00000390: 4a52 85bc cddb 043e 26ae 3bbe 2b95 b6bd
000003a0: b1cc 533e 1bc4 9abc 4da9 d93d 19ee 763e
000003b0: 2f16 8bbc c6a1 023e 121f f13d 5522 883e
000003c0: 06e4 14be a0ba b1bc 9218 53be 7245 0c3e
000003d0: 5062 623e 20ca 32be a894 07be 48e0 6ebe
000003e0: 845d 0ebe 17a7 f2bd 37ad 503d 5568 233e
000003f0: e78a 533d c439 babd aec6 30be ea6e b9be
-0.018503139 0.16160554 0.24510753 -0.12747484 -0.09773214 0.34698653 -0.13171604 0.14764981
0.007833986 0.071451895 -0.4637633 -0.17443512 0.47998804 0.20067112 0.19036388 0.17996082
-0.0728474 0.20824021 0.08758689 0.020128088 -0.15240426 0.14195374 0.16845465 0.20601104
-0.15445222 -0.066323146 0.107411385 0.14356695 -0.0635689 -0.2540276 -0.25269178 -0.15857519
-0.200158 -0.043309566 -0.31434256 0.011907028 -0.18937904 -0.33393356 -0.202934 -0.053525224
0.0011341332 0.101394355 -0.38355532 0.0031184747 -0.022712896 -0.17836192 0.1799182 -0.14077668
-0.10400606 -0.3288999 0.10741212 -0.15134874 0.04199467 -0.17848058 -0.2590789 -0.31161845
0.18428253 -0.3303707 0.047200114 -0.32963446 0.09344985 0.19900182 0.12586194 -0.24457933
0.10372051 0.13968003 0.03550145 0.39120787 -0.026645096 -0.048602078 -0.10178239 -0.13459677
0.42918316 0.03937961 0.3273869 0.008956674 0.115695 -0.073736094 0.3245764 0.13510261
-0.048470534 -0.1731011 0.40780732 -0.14953972 -0.15986809 0.30900738 -0.19207618 0.33512077
-0.33407667 -0.029973311 0.0025233428 -0.41685703 0.31001627 -0.014855279 0.117221154 0.45043215
-0.44138858 0.13711973 -0.004602801 0.21000057 0.077657655 -0.09264548 -0.3163199 0.19368926
-0.117309675 -0.20794515 0.21449631 -0.3937665 -0.12344387 -0.2553396 0.3236089 0.18090418
-0.04530553 -0.20473349 0.07432237 -0.058766436 -0.11256925 -0.13875651 0.1625313 -0.35885653
0.070385344 -0.116803184 -0.11462835 -0.1156151 0.08609131 -0.19838662 0.189565 0.10049099
0.06394642 -0.2555353 -0.06439188 -0.025024232 0.02639314 -0.28241718 -0.24413632 -0.15441014
-0.24218681 0.11580517 -0.120440714 0.14851366 -0.032425236 0.18144011 0.39333698 -0.2295989
-0.11953339 0.058958136 0.16812536 0.5237919 0.034265533 0.37318558 -0.16026022 -0.1438951
0.3501988 -0.11364291 0.0063124206 0.38001353 -0.2692702 0.071134195 -0.06306114 0.529351
-0.20584545 0.05774653 0.4746718 -0.19060348 -0.19578755 0.20817214 -0.030863598 0.32390344
0.15165292 0.091456406 0.054299656 -0.03489226 0.23454624 0.16715449 0.24015401 0.2326902
0.08514477 0.32091027 -0.08024415 0.1725343 0.070528135 0.16908732 0.15894881 -0.058448367
-0.22878946 0.27796635 -0.20662642 0.3505051 -0.28877732 -0.016971119 -0.17306913 -0.25563788
0.14220753 -0.074459545 0.2877035 0.4071309 -0.4003161 0.3655126 0.19378848 0.3753914
0.15255015 0.022854388 -0.45855278 -0.019373909 -0.171547 0.15399013 0.05229342 -0.4617705
0.06513212 0.07365091 0.09322189 0.20223238 0.10414184 0.028966667 -0.25515616 -0.119389094
0.16016614 -0.0009720976 -0.17819905 -0.3006882 0.0953888 -0.031061873 0.31586635 0.106912486
0.047639668 0.13412932 0.10891688 0.18956617 -0.01627459 0.12974472 -0.18328151 -0.0891517
0.20683552 -0.018892338 0.10627995 0.24114265 -0.016978351 0.12757024 0.11773504 0.26588693
-0.14540109 -0.021695435 -0.20614842 0.13698366 0.22107816 -0.17459917 -0.13240302 -0.23327744
-0.13902861 -0.11848276 0.05094644 0.15957768 0.05164614 -0.09093049 -0.1726329 -0.36217433

bias f4 [40]
00000000: c305 ac3e 8dec 1bbd 7261 21bd 834f 1d3f
00000010: 7484 4d3e aec9 c6be 41ec 423d 4645 1f3e
00000020: c0e6 913e b033 b43d 2c9d a33c 32af aa3e
00000030: 9623 fdbe 0e64 9cbd 30ab 203f 59ac c03e
00000040: 3dde 193f 9425 dabd efec 0cbf e6a0 be3e
00000050: 346c afbd 02da e13e 6b04 a53e 2156 0a3f
00000060: 9175 ce3e dc0e e9be 0123 203f e7cd 8b3d
00000070: 6b95 d0be 135a 59be 636d d43e b552 03bf
00000080: 72ad 9ebe e443 5ebd 2d79 f53e af76 ef3e
00000090: 1850 183f 7fb4 f43d 60be 133f f211 363e
0.33598146 -0.03806739 -0.03939957 0.6144945 0.20070058 -0.38825744 0.04758859 0.1555377
0.2849636 0.08798921 0.019972406 0.33336788 -0.49441212 -0.076362714 0.6276121 0.3763149
0.60104734 -0.10651699 -0.5504903 0.3723213 -0.0856556 0.4411164 0.32229933 0.5403767
0.4032407 -0.4551915 0.6255341 0.06826382 -0.40738997 -0.21225767 0.41489705 -0.51298076
-0.30991703 -0.054263964 0.47944012 0.46770236 0.59497213 0.119484894 0.57712364 0.17780283

weight f4 [20, 40]
00000000: c9bc 9bbe 0cda 843c 3186 33be 098f 82be
00000010: 1c6c b5bd b268 1c3e df7b 21be c1c4 1cbe
00000020: b35c 8dbe 3626 27be 3a8a f53d d226 953d
00000030: 6c9a a03e dba3 b63d 9fcf b4be 1d1b b1bd
00000040: cf14 2ebe 5c49 003e cd8c 323e 5d0b 9c3c
00000050: 95ad a53a d1ed b1be 4ab1 9bbe 5a59 19be
00000060: a689 dcbd e663 9a39 b57b c1be 535a 82bc
00000070: 9614 cd3d 4d8d c83d c155 81bd ee9c 7c3d
00000080: 5e77 003e 0aa0 a43d 2def 45be a862 293d
00000090: d42f 08bf 7746 973d 22c7 52be a59b 1fbe
000000a0: 9d28 0a3f 960c cb3c 4906 11bc 4146 fd3e
000000b0: 3c33 ab3e 8c34 1ebe 5728 54bd 6a4b c23e
000000c0: 0d02 c43e 2079 b63e c349 33be 5bfd c53d
000000d0: 3426 d2be b340 09be ed0e cd3e d5f7 123e
000000e0: 18dd 903e f09f ae3d 7ee0 85bd 86c6 803e
000000f0: 88a9 7fbd 343c e73e 0e96 c43e 54e4 64bb
00000100: 00bd 5e3b 2deb 4ebe 17ce ef3e 4303 79be
00000110: 14da 3b3d 3f17 e4bd 97bc b6bd 527a 80be
00000120: 7256 33bd 5c5f ab3c 4d8f e03e afd5 32bd
00000130: cdf7 a53e d0ce fd3d e7a7 373e eb2f cf3e
00000140: 5c2e 20be d6fa 1fbd 0c51 ccbd e24e 39bd
00000150: 2e28 2ebb 811d fc3d ca49 dcbb 21ad 0abe
00000160: 3054 d23d 62e5 103e 7b4f d4bc f6be 693d
00000170: ef83 fb3d 24f3 6f3d eeb8 ed3c 6f7e debd
00000180: ee61 913d 20dd 72bd c6d2 efbd 6326 333d
00000190: 84af bdbd 4d64 31bd a8b1 083e 540e ff3c
000001a0: b2cd 6abd 5cac acbd 71e9 11be a0bc 57bd
000001b0: 9ff6 d1bd 20bc 4a3c e367 ef3a c209 0d3d
000001c0: d7d7 f0bd 0e31 4f3d 7f62 3e3c e1df b13d
000001d0: a1af fdbd 4d15 96bd 3614 b4bd 15af 333d
000001e0: 12b5 e73e 2681 fdbb 6fa5 1ebe 5a66 df3e
000001f0: 8ef0 743e 745e 89be a4a0 88bc bf2e 903e
00000200: 6dfc b03e 610a 303e 5613 b3bc 9773 293e
00000210: 7006 9abe a6f0 acbd 464f 1c3f f1c7 59bd
00000220: 0e57 fd3d 132d c7bc fb2e d2bc 47b0 2b3e
00000230: a8c6 553d 6035 903e df99 083f 1927 0c3e
00000240: c283 623d 9312 963c 0108 be3e ee28 9dbd
00000250: a81f d1bd 2b54 e5bd f24c fa3d f3a7 bbbe
00000260: 5105 c5bd 54e2 bf3d d89c ef3d e906 7b3e
00000270: cc75 023f 236f fbbd 514c f13e 01ed 4e3e
00000280: 9bcd e9bd ff95 073e bc1b 2e3d 0056 35bb
00000290: 9398 9dbd c439 fcbd b274 70bd 7402 723d
000002a0: 18b8 febc b1f3 18be 302d 263d f46c 533d
000002b0: 35d3 21be 26c0 da3d 4003 483b 9eea 88bd
000002c0: 7cbe 47bd a617 7dbd 5dce 0a3e b7c5 90bd
000002d0: 4987 b9bd a0b0 ecbc 9c70 9b3d e2f8 cc3d
000002e0: 703b 95bd 0496 38bd 10e3 183c 44f2 6ebd
000002f0: eb83 edbd cd6d cebd aeaf b5bd b18a 11be
00000300: 5044 a5bc 80bf 4cbd fefb c83d 60d7 5f3c
00000310: 5ee8 c7bd 3650 0abe 4c5c a63d 74a8 7c3d
00000320: a54f cc3e 621b eabd 45e7 37bd ba38 d93e
00000330: 1c4e 823e 9bcd 90be d04d 9a3d afec 763e
00000340: f787 0b3e 4877 9b3e 2c73 06be 5492 833e
00000350: 7ab3 e3bd f381 90be 7305 d93d 7d45 543e
00000360: 1ea7 9e3d 105d 3a3e 8f9e a4be cada 93bd
00000370: bfe9 9bbe 9c74 aa3e cf14 b93e 7803 803e
00000380: 0ea8 87be 0511 1abe bd21 b23e f41e d8be
00000390: 88f8 aebe 52c3 ba3d 046c 023d d8a1 0ebe
000003a0: 7a76 00be 4fc4 6ebe a346 0b3f 01bd 393e
000003b0: 2672 e03e fe0c a93d d156 9d3e c8c4 703e
000003c0: ec1d b63e 253a ea3d b9ff a3be 9bb8 153e
000003d0: 9d4a b93e 44bf c5be d740 8c3c ef98 b03e
000003e0: e62a 403e ae74 c53e af67 c8be e6a5 313e
000003f0: afdf 98be e19d 87be f724 f13e f267 01be
-0.3041747 0.016217254 -0.17531659 -0.25499752 -0.08858511 0.15274313 -0.1576991 -0.1530943
-0.27609786 -0.1632317 0.11989255 0.07282795 0.31367815 0.08917972 -0.35314652 -0.086477496
-0.17000125 0.12527984 0.17436524 0.019048387 0.0012640232 -0.34751752 -0.30408698 -0.14975491
-0.10768442 0.000294476 -0.37789693 -0.01591221 0.10013692 0.09792576 -0.063151844 0.061673097
0.12545535 0.080383375 -0.1932952 0.04135385 -0.5319798 0.07386487 -0.20583776 -0.15586717
0.5396822 0.024786275 -0.008851596 0.49467662 0.33437526 -0.15449733 -0.051796284 0.3794816
0.38282815 0.35639286 -0.17508607 0.09667464 -0.41044772 -0.13403587 0.4005045 0.14352353
0.2829368 0.085265994 -0.06536959 0.2515146 -0.062417537 0.4516312 0.38395733 -0.0034926133
0.0033987164 -0.202069 0.46836922 -0.2431765 0.045862272 -0.11137246 -0.089226894 -0.25093323
-0.043783613 0.020919494 0.4385933 -0.043660816 0.3241562 0.12392962 0.17935143 0.40466246
-0.15642685 -0.039057575 -0.09976396 -0.045241244 -0.0026574242 0.12310315 -0.0067226635 -0.13542606
0.10269964 0.14150003 -0.025916805 0.05706688 0.12281024 0.058581486 0.029018845 -0.10863959
0.07098757 -0.059292912 -0.11710124 0.04373778 -0.092619926 -0.043308545 0.1334902 0.031134762
-0.057325073 -0.084313124 -0.14249207 -0.05267012 -0.10252117 0.012373954 0.0018265214 0.034433134
-0.11759918 0.05058389 0.011620163 0.0868528 -0.12387014 -0.073282816 -0.087929174 0.043868143
0.45255333 -0.007736343 -0.15492795 0.43632776 0.2391989 -0.26829875 -0.016678162 0.28160664
0.34567586 0.17191459 -0.021859806 0.16548 -0.30083036 -0.084443375 0.6105846 -0.053169195
0.1237012 -0.024313485 -0.025657168 0.16766463 0.052191406 0.28165722 0.5335979 0.1368679
0.055301435 0.018319404 0.37115481 -0.07673822 -0.10211116 -0.111976944 0.122217074 -0.36651573
-0.09620155 0.093693405 0.116998374 0.24514355 0.50960994 -0.12277057 0.47128537 0.20207597
-0.11416169 0.13240813 0.04250692 -0.0027669668 -0.07695117 -0.123157054 -0.05870504 0.05908437
-0.031093642 -0.14936711 0.040570438 0.051617578 -0.15803225 0.10681181 0.0030519515 -0.06685375
-0.048765644 -0.06179013 0.13555284 -0.07068961 -0.09059007 -0.028892815 0.07589838 0.10008408
-0.072867274 -0.04506494 0.00933148 -0.05833651 -0.11597427 -0.100795366 -0.08871399 -0.14213063
-0.020174176 -0.049987316 0.09813689 0.013662189 -0.097611174 -0.1350716 0.08123073 0.061684087
0.39904514 -0.11431004 -0.04489829 0.4242609 0.25450218 -0.28281865 0.07534373 0.24113725
0.13626085 0.30364442 -0.13129872 0.25697577 -0.11118217 -0.28224143 0.105967425 0.20729633
0.07746719 0.18199563 -0.3215222 -0.07219465 -0.30451772 0.3329209 0.36148688 0.25002646
-0.26495403 -0.15045555 0.34791365 -0.42211115 -0.3417399 0.09119286 0.031841293 -0.13928926
-0.12545195 -0.23317073 0.5440466 0.18138506 0.43837088 0.08254431 0.30730298 0.23512566
0.35569704 0.114368714 -0.32031038 0.14621203 0.36189738 -0.38622487 0.017120762 0.3449168
0.18766364 0.38565582 -0.39141604 0.17348441 -0.29858157 -0.2648764 0.47098514 -0.12637308

bias f4 [20]
00000000: 4504 d0be b0a4 8f3e ec15 04be 5a2c d83e
00000010: 280c 99bd d115 9f3e 7b3c 8d3e ddf8 03bf
00000020: 5812 d4bd 7ae6 283d c6b6 553e 20a8 6e3e
00000030: 4b16 463d 5f51 5c3e 513f 953d e655 99be
00000040: d292 713e b6c7 b4be dadc 133e aebe 07be
-0.40628257 0.28055334 -0.12898988 0.42221338 -0.07473022 0.31071332 0.27585205 -0.5155161
-0.10355061 0.041235425 0.20870504 0.23306322 0.048361104 0.21515416 0.07287467 -0.29948348
0.23591164 -0.35308617 0.14439717 -0.13256332

weight f4 [10, 20]
00000000: 0410 3dbe 9c93 de3e 619b 9dbd 7510 c83e
00000010: e0c0 0dbe f82a d23e 4d6e f03e b7b9 d23d
00000020: 354a a93d e298 893e 83fa ff3c 41f7 c7be
00000030: c358 2ebe 6f84 6fbe d1a2 20bf 68ac 59be
00000040: c36e d33e a24b 233e 612f bcbe 7dbd 1e3d
00000050: 8dd9 4dbe 6543 46bd dc3e cf3d 9017 7c3e
00000060: 8c25 ed3d 93cb df3e ea16 a1be 21d4 c33c
00000070: a8e7 1dbe 46cc f43b 1dae b0be 432d 8d3d
00000080: ad67 ec3d 84fa ed3e aec2 d3bc c46a 1ebe
00000090: d53e 403e 599c 853e 958c e73e 5df3 133e
000000a0: fd21 dcbe f5ee 3b3e b3d6 283e 636c ce3e
000000b0: c0d0 84bb 49a3 2dbf 22db 86bd 09c2 58bd
000000c0: 43e8 48be adf7 893e aaca c33d fe95 393e
000000d0: 640d a1bd 0f18 ec3e 468a 4c3d 0971 193d
000000e0: bab1 2bbf e3fb f9be a23d b43e 31d0 a7bd
000000f0: fc40 56be fff6 45bf 8766 d63c f80e b73e
00000100: a973 cfbd 3e79 cebe c0d9 0ebd 33d5 ddbe
00000110: 0a87 c0bd 84ea 3f3e aa6e 683e 7e71 423e
00000120: dd9e e0bd baad 253e 38e0 6c3e 38c6 83be
00000130: 5176 32be 5af3 a0be f81b 5f3e 2b76 8b3d
00000140: faec 3fbd ea22 c3be 8dc0 52be 7927 96be
00000150: 30f7 0b3d 1465 c6be d257 eebd 1299 70bc
00000160: 0779 11bd a458 243d 9eb7 443e 7998 533e
00000170: 4230 143e 710c b93d 8e8a 3d3e ecb9 bcbe
00000180: e373 7bbe d28d 433e 0774 58be 50d1 87bd
00000190: bfe2 cb3d d220 95be fdde 053c 5ef4 40be
000001a0: 64be 42be 8fbb 3abe cf46 f8bd bfc5 cf3d
000001b0: bdb8 a13d 4723 45be 05ec 403c ff45 4bbe
000001c0: 1935 f63d fd9d 9dbe d83e 7abe 45f1 8fbd
000001d0: 499c 6cbe 8a04 e0bd 6847 50be 8309 6dbd
000001e0: d6f0 9b3e c4de d4be 6087 1ebe 71a9 2ebf
000001f0: 17c1 d8bd 5f23 c9bc 3282 293b 7faa cc3e
00000200: 752d 393e 26bb c13d c59a 0cbe 7d48 213e
00000210: b4c2 cc3d a46c 99bc be0c 293e d4ad 9a3e
00000220: 4597 bfbe 3d6f 033e ab0b 983d 2bfb c4bd
00000230: f5e4 4ebd 5495 bfbe a520 5abd e65d d3be
00000240: 6c99 21be 0a37 8fbd 5ccd 0bbe 31e1 5bbd
00000250: 0450 b3ba 9c66 4dbe 2f73 263e e384 8fbe
00000260: 8bc4 00be 213d e43d a64c e8bd 9323 c2bd
00000270: 497f 8bbd 6022 043e 042b 72bd ada6 4c3e
00000280: 0385 fabd 528d 35be 7976 41be 3259 c4be
00000290: d2c1 98bd bba5 9dbe 1df4 94be 71f4 c8bc
000002a0: 5f86 7bbd 7752 9abe fd4f 2e3d b013 4cbe
000002b0: 6c51 973d 3661 08be c2e0 bdbe 5657 e73d
000002c0: 7f0c 2ebe 6310 00bd a894 ddbd d30f 1e3e
000002d0: 65c9 88bd 205e adbe f888 cfbd 74fb 34bc
000002e0: 30fc 6bbc 9401 eebd 63c8 c0be 38dd e1bd
000002f0: 5b83 c93b 5b4a 35be da1c e53c 7796 c9bd
00000300: 13c7 3ebe 0a51 7abe 4438 93bc 5662 04be
00000310: d1bb 9ebe 70cf d83d 0b84 82bd 0598 033e
-0.1846314 0.43471992 -0.07695652 0.39075056 -0.13843107 0.41048408 0.46959153 0.102893285
0.08266107 0.26874453 0.031247383 -0.39055827 -0.17026047 -0.23390363 -0.6274844 -0.21257174
0.41295442 0.1594682 -0.36754897 0.03875493 -0.2010252 -0.048404116 0.10119411 0.24618363
0.11579427 0.43710002 -0.31462795 0.023904862 -0.15420401 0.0074706404 -0.34507838 0.068933986
0.11543212 0.4648019 -0.025849666 -0.15470415 0.18773969 0.26095846 0.45224443 0.14448304
-0.4299468 0.18352874 0.16488151 0.40317068 -0.0040532053 -0.6782728 -0.06584765 -0.05291942
-0.19619851 0.26946774 0.095601395 0.18123624 -0.07863882 0.46112105 0.049936555 0.037461314
-0.67068064 -0.48824987 0.35203272 -0.08194006 -0.20923227 -0.7733001 0.026171936 0.35753608
-0.10129482 -0.40326875 -0.03487563 -0.4332672 -0.09400757 0.18741804 0.22698465 0.18988606
-0.10967801 0.16179553 0.23132408 -0.25737166 -0.17427947 -0.31435663 0.21788013 0.06809648
-0.046856858 -0.38112575 -0.20581265 -0.2932699 0.034171283 -0.3874899 -0.11637844 -0.014684932
-0.03551581 0.040123597 0.1921067 0.20663632 0.14471534 0.09035576 0.18509886 -0.36860597
-0.24555926 0.19097069 -0.21138011 -0.0663172 0.09955358 -0.29126602 0.00817084 -0.18843219
-0.19017941 -0.1823561 -0.12122881 0.10145139 0.07896564 -0.19251738 0.011775021 -0.1985092
0.12021846 -0.30784598 -0.24438035 -0.070284404 -0.23106493 -0.10938366 -0.2033974 -0.0578704
0.3045718 -0.41576207 -0.15481329 -0.682273 -0.10583704 -0.024552999 0.0025864956 0.39973828
0.18083747 0.09459524 -0.13730915 0.15750308 0.09998074 -0.018728562 0.16508767 0.30210745
-0.37420097 0.12835403 0.074241005 -0.09618219 -0.05051132 -0.37418616 -0.05325379 -0.41282576
-0.15781182 -0.0699292 -0.13652557 -0.053681556 -0.0013680463 -0.20058674 0.16254877 -0.28031072
-0.12574975 0.11144472 -0.113427445 -0.094794415 -0.06811387 0.12903738 -0.059123054 0.19985457
-0.12232401 -0.1772969 -0.1889285 -0.383493 -0.07458843 -0.30790505 -0.29092494 -0.024530621
-0.061407443 -0.3014104 0.04255675 -0.19929385 0.07388577 -0.13318333 -0.3708554 0.11295955
-0.16996954 -0.031265628 -0.108193696 0.15435724 -0.06679038 -0.33860874 -0.101335466 -0.011046279
-0.014403388 -0.11621395 -0.37652883 -0.11028522 0.006149692 -0.17704146 0.027967859 -0.09843152
-0.18630628 -0.24444976 -0.017971165 -0.12928137 -0.31002668 0.105864406 -0.063728414 0.1285096

bias f4 [10]
00000000: 0835 303e 2086 723e 56b0 103e f474 9b3e
00000010: f5fe 0abe 8f3f c53d e487 38be 9a2d 273c
00000020: 6fb4 003e 2a0b babd
0.1720773 0.23683977 0.14129767 0.30362666 -0.13573821 0.096312635 -0.18020588 0.010203743
0.1256883 -0.090841606
