pytorch_learning/MathorCup/nnn1.pth (torch, 10991 bytes, 7 tensors)

weight f4 [20, 1]
000000 00 0d 32 3e 94 2f 96 3e 5c 01 78 bf c0 40 78 bd
       0.17387772 0.29333174 -0.96877074 -0.060608625
000010 e3 df 66 bf c0 9f 97 be 91 ba db 3e 74 25 30 bf
       -0.90185374 -0.29614067 0.42915776 -0.6880715
000020 b0 4d 2d bf 32 ae 01 3f 2c f5 9c 3e 02 b5 65 bf
       -0.67696667 0.50656426 0.306558 -0.8972932
000030 7c 8f 9c 3e 04 c6 74 bf 87 87 8b 3f b0 8b 45 bf
       0.3057822 -0.9561465 1.0900735 -0.7716627
000040 00 e5 be 3b d3 ee 36 bf 1e 71 32 3f 9a 03 f0 3d
       0.005825639 -0.71458167 0.69703853 0.11719437

bias f4 [20]
000000 59 ff f9 3e 02 8c 25 bf 16 92 27 3c 28 d3 96 be
       0.48827627 -0.6466676 0.010227701 -0.29457974
000010 00 bb 3f 3f d5 1a 6c 3f c7 e8 e9 3e 67 db 92 3e
       0.74894714 0.9222844 0.45685408 0.28683016
000020 9d 59 c1 bc cc 3f d7 be d2 bb 4b bf 4c ed 56 bf
       -0.023602301 -0.4204086 -0.79583466 -0.83955836
000030 f3 10 05 3e 5e eb 01 be 6a dd ea bd be 4e 3d bf
       0.12994747 -0.12687442 -0.11468013 -0.73948276
000040 00 f3 10 bc 6c 7e 1e 3e f4 80 c2 be ec 96 60 3f
       -0.008846998 0.15477914 -0.37989008 0.8773029

weight f4 [40, 20]
000000 69 0a 69 3e 0c a5 02 3e 05 70 8f bd 2c f3 44 3e
       0.22757877 0.12758273 -0.07003788 0.19233388
000010 5a 0b 15 be eb 49 8b 3d 46 58 b1 3b 4b 61 4d 3e
       -0.14555112 0.06801208 0.0054121343 0.20056646
000020 b5 81 76 bd b1 e6 cd bd d0 7e 34 3e 30 c7 d8 3c
       -0.060182292 -0.100537665 0.176265 0.026462168
000030 07 65 00 be 39 5e 6a be 33 63 1f bf 94 05 79 bd
       -0.12538539 -0.22887506 -0.6226074 -0.060796335
000040 a6 a8 1b be 18 2d 27 3e 88 ef d5 3d 34 35 5a 3e
       -0.15201053 0.16325796 0.104460776 0.21309358
000050 c8 33 f8 3a c9 59 56 be f8 2f 09 be d4 b2 14 bd
       0.001893633 -0.20932688 -0.13397205 -0.036303356
000060 16 8e 07 3d 41 8a 0b 3e 49 2b 2d be ec 03 7e 3d
       0.033094488 0.13626958 -0.16911043 0.06201546
000070 f6 34 36 bd 3e a3 18 3e c7 11 29 be 08 71 fa bd
       -0.0444841 0.14906022 -0.16510688 -0.1222859
000080 78 55 27 bd 21 55 6d 3b 30 b5 a3 be 26 d8 39 3e
       -0.040852994 0.003621407 -0.31974173 0.1814886
000090 dc 1a 0d be 6a 7f 11 3e c0 35 8b 3b 7d fd 03 3e
       -0.13779777 0.14208761 0.004248351 0.12889667
0000a0 f5 98 53 3e b0 6c 6d 3d 11 8e 6b be 04 1e 95 bd
       0.20663817 0.05796498 -0.23003413 -0.07281116
0000b0 19 b3 3d be b6 82 0c 3d 68 12 4f 3e b3 1d 83 3b
       -0.18525352 0.034304343 0.20221865 0.004001343
0000c0 69 2b c9 be 6a b1 1c be ce 3a 14 be 98 8a 48 3d
       -0.39290932 -0.15302053 -0.14475557 0.0489603
0000d0 c9 46 e3 bd 7a 23 e2 bd 65 a5 5c be 4c 31 11 3e
       -0.110974856 -0.11041923 -0.21547468 0.14178962
0000e0 0c 63 d7 bd 18 1b 7f 3b 14 ce 0f 3e 42 f9 87 3d
       -0.105169386 0.0038926061 0.14043456 0.06639339
0000f0 2a 37 0d 3e ea ae 28 be 6a 12 a2 bc 14 f5 29 3e
       0.13790575 -0.16472974 -0.019784171 0.16597396
000100 08 0a a5 3d 24 2f 0a 3d 94 ec b5 3c 4b a7 eb 3d
       0.08058554 0.033736363 0.022207536 0.11506518
000110 ab f4 42 3d 9a 00 61 3e 68 65 17 bd 86 7a 42 be
       0.047596615 0.21972886 -0.036961943 -0.18992051
000120 5d cc 83 3d 2a 1e 9a 3e 54 d6 a4 3e 98 71 12 3d
       0.064354636 0.30101138 0.3219477 0.035752863
000130 18 8d 4f 3d b5 93 86 3d 50 9b c2 bd 97 8c 4f 3e
       0.050671667 0.06571142 -0.0950228 0.20268475
000140 4c f9 c3 bd f8 e9 8f bd f0 02 62 3e 23 7d 52 be
       -0.09569034 -0.07027048 0.22071433 -0.20555548
000150 64 49 6a be c3 32 57 bd 8d 6a 10 bd d5 64 ea 3d
       -0.22879559 -0.052538645 -0.035257865 0.114450134
000160 cd 85 40 bb 34 17 0e bd 7e c2 0d 3e 62 e1 01 be
       -0.0029376626 -0.034690097 0.13843724 -0.12683633
000170 19 9e a4 3d 47 16 a2 3e 2d 31 ca 3d 8e b8 24 3e
       0.08037967 0.3165762 0.09872661 0.16086027
000180 4e af 17 be 30 04 8a 3d 50 e3 71 bc a7 27 48 be
       -0.14812967 0.0673908 -0.014763668 -0.19546376
000190 fb db 54 bd 94 65 58 be e4 08 2e bc ac 07 b1 3d
       -0.051967602 -0.21132499 -0.010622237 0.086440414
0001a0 8b 86 13 3e 2e 58 f0 3c c2 6d 1b 3e e3 c6 2c be
       0.14406793 0.029338922 0.15178588 -0.16872744
0001b0 77 09 0a be 40 9a 5b be 10 9e 06 bd e0 16 41 bc
       -0.13480173 -0.2144556 -0.032865584 -0.011785239
0001c0 2d ce 9a bd 7f 03 61 be d9 6f ad be b4 82 00 bd
       -0.07558856 -0.2197399 -0.33874395 -0.03137465
0001d0 90 dc dc 3d 82 e2 da bc 5a a8 1f 3e 6b 0b 1d bd
       0.107842565 -0.026719335 0.15591565 -0.038340967
0001e0 bf 84 ed 3d 8c ed 11 bd 99 a4 12 be 48 a4 51 3e
       0.11597585 -0.035626933 -0.14320602 0.20472825
0001f0 42 a5 11 be 29 bd b6 3d e3 3e 1f be b6 51 40 3e
       -0.14223197 0.08922798 -0.15551333 0.1878117
000200 d6 09 8d be 90 0a d7 3d 07 a9 f1 bd 7e fa 0f 3e
       -0.27546567 0.105000615 -0.117998175 0.14060399
000210 fd ef 82 bd c5 49 3e be 90 06 fa bd 3f 91 61 be
       -0.063934304 -0.18582828 -0.12208283 -0.22028063
000220 44 aa 93 3d 36 4c 30 be fc 9d a3 bd bc 39 e6 bc
       0.0721021 -0.17216572 -0.079891175 -0.028103702
000230 12 fe 18 3e 76 89 60 be 04 c5 e9 bc 98 92 01 3d
       0.1494067 -0.21927437 -0.028536327 0.031633943
000240 c8 62 86 3d b2 00 ed bc 29 9e 2b be b7 26 13 be
       0.0656181 -0.028930996 -0.16759552 -0.14370237
000250 8f 8a a4 3e 16 c1 51 3e d0 02 9e 3d 77 05 47 be
       0.32136962 0.20483813 0.0771538 -0.19435678
000260 02 a8 e6 3d dd 60 48 3e d8 42 ea 3e 70 2c 49 3d
       0.11262514 0.195682 0.45754123 0.049114645
000270 58 60 95 3d 8b 48 2a bd 96 38 b9 bd 8e 19 ed bd
       0.07293767 -0.04157309 -0.09043996 -0.1157714
000280 bb eb 91 bd 98 c4 5e 3e 04 eb b1 3b d2 4c 62 3e
       -0.0712504 0.21754682 0.0054296274 0.22099617
000290 78 ab 93 bd d0 55 51 3e 60 e9 29 be a2 ba 3a be
       -0.072104394 0.20442891 -0.16592932 -0.18235257
0002a0 62 34 82 3d 00 dc 1b 3d e4 20 e8 bd 54 86 f6 3d
       0.063576475 0.038051605 -0.113343984 0.1203734
0002b0 63 03 c2 3d a2 a5 dd 3e af 2e 8f 3e 74 1a 17 be
       0.09473302 0.4329043 0.27965304 -0.14756185
0002c0 1a 9c 1b 3e dc 6a 38 be b4 49 bc bd 79 46 de bc
       0.15196267 -0.18009514 -0.09193745 -0.027133213
0002d0 95 90 94 3b 2c 38 9a bd 4c 99 3e 3d 76 1c 0f 3e
       0.004533837 -0.07530245 0.046532914 0.139757
0002e0 6d 1d 2b be 15 92 ed 3d 4f d0 ca 3c df e5 21 3e
       -0.16710444 0.116001286 0.024757532 0.15810345
0002f0 9f bf da be d0 94 c7 3c 88 03 36 3d 60 b3 56 be
       -0.4272432 0.024362952 0.04443696 -0.20966864
000300 d8 d8 03 be 74 7c cc bd 5d 2f aa be d8 06 f5 3d
       -0.12875688 -0.09984675 -0.3323926 0.11964196
000310 3c 2a 80 3d 74 87 bd 3c 16 82 aa bd f2 da 8e bb
       0.062580556 0.023135878 -0.08325593 -0.0043595964
000320 8c bd 41 3e 44 d1 df 3d 64 b1 1d be 2e 82 09 3e
       0.18919963 0.10928586 -0.153997 0.13428566
000330 20 c1 89 3b 2b 17 f5 b9 83 57 d9 3d 3e 12 27 3e
       0.0042039305 -0.00046747303 0.10612395 0.16315553
000340 cb 7a 8e bd 19 90 23 be 32 1a 31 3e 08 80 cf bd
       -0.06957015 -0.15972938 0.17295149 -0.10131842
000350 12 88 10 be 53 2c 3b 3d f2 ff 06 3f 5e 31 3e be
       -0.14114407 0.045696568 0.5273429 -0.1857352
000360 52 a8 ce bd ac 70 cd 3c 7b ab f5 bd 6b aa 90 ba
       -0.10090698 0.02507814 -0.11995598 -0.0011037117
000370 11 02 a5 3d ca 7d 81 bd ce 38 73 3d 74 36 2a bd
       0.08057035 -0.063228205 0.059380345 -0.041555837
000380 62 da 5d be c0 c4 80 bd ea 72 25 3c 12 26 de bc
       -0.21665338 -0.06287527 0.010098198 -0.027117763
000390 9e 23 46 3e e0 01 37 bc 38 49 2d 3d 28 fb 45 be
       0.19349524 -0.011169881 0.042306155 -0.1933409
0003a0 14 54 91 bd 1d 6f b1 3d 95 54 72 3e 6c 31 28 3e
       -0.07096115 0.08663771 0.23665078 0.16425103
0003b0 fe d7 64 3e 88 fe 18 be 78 16 1d 3e dc 40 09 3d
       0.2234802 -0.14940846 0.15340602 0.03350912
0003c0 e9 88 21 be 5a 67 0d 3e fb b1 ef bd 80 1c e5 bb
       -0.15774883 0.13808957 -0.11703869 -0.006991923
0003d0 48 96 5f 3e c9 ec fa bd 5a 2e 36 3e 06 ef 33 be
       0.21834671 -0.122521944 0.17791119 -0.17571649
0003e0 6e f9 cf be 14 59 dd bd 91 e7 4b be b8 38 6a bd
       -0.40619987 -0.10808006 -0.19912554 -0.057182997
0003f0 22 f9 41 be 0c df bf be ee 09 8a bd 7f ed 54 be
       -0.18942693 -0.3747486 -0.06740175 -0.20793723

bias f4 [40]
000000 39 76 57 3e 33 7c 31 3e 3f a7 aa 3b 9a 99 0a be
       0.21041192 0.17332534 0.0052079256 -0.13535157
000010 1a a3 44 be 7e 0f 30 3b 70 5e 07 3e 4b 23 84 3d
       -0.19202843 0.0026864703 0.13219619 0.06452044
000020 38 29 34 3e 09 5f cc 3d 5b 67 d1 3c b0 d1 55 be
       0.17593849 0.09979064 0.025561979 -0.2088077
000030 79 95 13 be dc f0 c0 3d 5f 59 f4 3d 65 34 52 3e
       -0.14412488 0.0942094 0.11931109 0.205278
000040 ac cb 04 bd 24 1f 79 bd d6 86 2f 3d 6d 68 54 3e
       -0.0324208 -0.060820714 0.0428532 0.2074296
000050 83 75 c3 3d 3f d8 0e bd 26 30 a7 bc 99 db c4 bd
       0.09543898 -0.034874197 -0.020408701 -0.096121974
000060 cd 96 59 be 01 11 08 3e 14 7f 99 3d a7 69 d4 3d
       -0.21248932 0.13287736 0.07494941 0.10371714
000070 6f fa 4f 3d be ef 1b 3e 8f 2b cc bd 22 44 82 bc
       0.05077594 0.15228173 -0.09969246 -0.015901629
000080 7e d9 ac bc 9b e7 e3 3d 27 b4 d1 3d 78 c2 1e be
       -0.021099802 0.111281596 0.102394395 -0.15503871
000090 f3 36 aa 3d 19 f2 62 be 38 18 31 3e 84 f3 30 bd
       0.08311262 -0.22162665 0.17294395 -0.043200985

weight f4 [20, 40]
000000 a8 cd 59 bd c2 cf 82 bd 71 7f 04 be 20 bc 29 3d
       -0.053174645 -0.06387283 -0.1293924 0.041439176
000010 a9 36 1c 3e 52 b4 7d bd ab 40 a7 bd 2e 72 ec 3d
       0.15255226 -0.061939545 -0.08166631 0.115452155
000020 3b 41 1a 3e 88 8f 13 be c8 2d c6 bd b4 5a 83 bd
       0.15063946 -0.14410222 -0.09676701 -0.064137846
000030 b8 5d c0 3c 73 57 1c 3e 2f b6 19 3e 98 89 f1 bc
       0.023482189 0.15267734 0.15010904 -0.029484555
000040 94 38 19 3d 50 f7 7e 3c 9e bd dd 3d 52 a7 00 be
       0.037407473 0.015561894 0.10827182 -0.12563828
000050 2a c4 ef bd c8 fd 88 3d 9d 11 ad bd 6d 41 1d be
       -0.11707337 0.0668903 -0.08450625 -0.15356989
000060 20 ac 2d bc a9 dc 03 3e 9c 09 75 3d 62 1a c3 3d
       -0.01060012 0.12877144 0.059823617 0.095265165
000070 10 be 5e 3c da 83 93 bd c0 5f 0d 3b 78 02 d7 bd
       0.013595119 -0.07202883 0.0021571964 -0.10498518
000080 78 3a 95 bd 78 4c f6 3c 8c cc 38 bd 6a b9 a3 3d
       -0.07286543 0.03006576 -0.045116946 0.07994349
000090 38 53 ee bd 47 0d 90 bd 0e 80 51 bd 81 3e a1 bd
       -0.116369665 -0.070337825 -0.051147513 -0.0787325
0000a0 d8 61 19 be d3 c2 0b be b7 c2 aa bd e0 70 31 bd
       -0.1497873 -0.13648538 -0.0833792 -0.043320537
0000b0 88 d6 5a 3d 49 64 0f 3e 75 c3 97 bd bc 46 51 bd
       0.05342725 0.140031 -0.07410327 -0.05109285
0000c0 e0 ed 9b bd 50 1d 07 3d 80 27 b0 ba 1f 65 01 3e
       -0.076137304 0.03298694 -0.0013439506 0.12636231
0000d0 20 23 06 3c 06 b4 2c bd aa 33 e2 3d f3 99 00 3e
       0.008187085 -0.04216387 0.110450104 0.12558727
0000e0 70 63 4e bd 40 7e 04 3b b4 45 29 3d 2a a8 22 bd
       -0.0503878 0.0020216852 0.04132624 -0.039711155
0000f0 41 e2 19 3e 70 17 65 3d 20 44 d0 3b a0 9c 04 3c
       0.15027715 0.055930555 0.0063557774 0.008093983
000100 ee 23 df bd f0 0e 51 bd 2e 6b 88 3d 98 be 48 3d
       -0.10895525 -0.051039636 0.06661068 0.04900989
000110 fb 24 b3 bd ee 9b d8 3d c8 a6 ae 3c 96 70 96 3d
       -0.08747288 0.10576616 0.021319762 0.07345693
000120 eb 7e 0f 3e 40 d2 0d bc 28 39 af bd 92 41 96 3d
       0.14013259 -0.008656085 -0.085558236 0.07336725
000130 cd ec 02 3e 30 43 3a 3d 0a dc df bd 10 df d8 bd
       0.12785645 0.04547423 -0.10930641 -0.10589421
000140 5f 4b 85 3d 73 dc b9 3d 85 d2 91 3d fc 6f b3 bd
       0.065085165 0.090752505 0.071202315 -0.08761594
000150 31 80 01 be cb 83 fa 3d f5 63 1a 3e 17 44 15 bd
       -0.12646557 0.12232169 0.15077193 -0.03644189
000160 1f dd f0 bd fe 33 c7 3a d2 d5 12 be 54 fa 9e bd
       -0.117609255 0.001519799 -0.14339378 -0.0776259
000170 3a a4 e3 3d b9 2f 0b be da ba 2a bb c8 32 9b 3d
       0.11115308 -0.13592423 -0.0026051314 0.07578045
000180 29 bb 46 3d 4b 41 f4 3a e4 a9 6d bd 42 52 b9 bd
       0.048518334 0.0018635181 -0.05802335 -0.090488926
000190 0c 21 83 bd 25 e5 91 3d e9 bf 06 3d 5d 31 ff bd
       -0.064027876 0.07123784 0.032897864 -0.12460587
0001a0 2e e1 0a be e0 4e 8d 3d f7 2b 1d bd be 9e e7 bd
       -0.13562462 0.0689981 -0.038372006 -0.113095745
0001b0 cf 85 16 3e 1b 7d c3 bd f1 67 a7 3d 0a 5b de 3d
       0.14699481 -0.09545346 0.08174122 0.10857208
0001c0 df 9b ea ba 90 fc 97 3d b1 28 ab 3d 34 eb a4 3c
       -0.0017899236 0.07421219 0.08357371 0.020131685
0001d0 97 96 87 bb 74 5c cb bd f0 7d 19 be 37 f4 30 bd
       -0.0041378248 -0.099297434 -0.14989448 -0.04320165
0001e0 00 7a 05 3c 09 ed 8b 3d b5 91 14 3e d2 dc 94 bd
       0.008146763 0.0683232 0.14508708 -0.07268681
0001f0 62 24 a5 bd 08 dc 06 3e 09 f1 97 3d af ed 86 3d
       -0.0806358 0.13169873 0.07419021 0.06588303
000200 75 56 07 3e 6d 56 98 3d d1 02 89 bc 36 d2 09 be
       0.13216574 0.074383594 -0.016724976 -0.13459095
000210 ce dc e9 3d 4a 55 2b 3d e8 11 d1 3d 82 2b 8a 3c
       0.11419068 0.041829385 0.102084935 0.01686645
000220 2c 11 17 3e db c1 3b bd 6e 74 a2 bd 5f d1 ac 3d
       0.14752644 -0.04583917 -0.079323635 0.08438372
000230 fb 8d 20 3d 91 fb 52 3b 33 a8 3e 3d ae a1 90 3d
       0.039197903 0.0032193402 0.046547126 0.07062088
000240 5f b3 ce bc c9 8e bb bd e1 d2 05 3e 0a 0d 12 3c
       -0.025232015 -0.091580935 0.13068725 0.008914242
000250 34 cd 29 3d 48 e6 d0 3b 88 99 9a bd 58 a4 c2 3d
       0.041455463 0.006375108 -0.07548815 0.09504002
000260 47 79 db 3d f8 b4 de 3d 35 6b 05 3e 93 6b e2 3d
       0.10716491 0.10874361 0.13029177 0.110556744
000270 92 18 26 be 9d f1 11 be 46 42 9d bd 51 c3 0b be
       -0.1622031 -0.14252324 -0.07678656 -0.13648726
000280 b9 51 de bd 90 28 e8 bd 4c be 21 be e1 db f7 3d
       -0.10855431 -0.11335862 -0.15795249 0.121024854
000290 a1 83 40 bd be ea 98 bd 3e d5 2b bd ca e8 a1 3d
       -0.04700053 -0.074666485 -0.04195141 0.07905729
0002a0 36 62 17 3e 61 ae ca bd c3 73 15 3e ba 86 be bd
       0.14783558 -0.098965414 0.14594941 -0.09303041
0002b0 8f 12 f5 3d 39 9a c3 3d 0b d0 a4 bd 7c 3c 6f 3d
       0.119664304 0.095509 -0.080474935 0.05840729
0002c0 0a 50 76 bd 8a 38 3f bd 3b b9 e5 3c 15 73 87 bd
       -0.060134925 -0.04668478 0.028042426 -0.06613747
0002d0 20 3d 7c bb 4f 93 8a 3d 0c eb c4 bd 89 38 53 bd
       -0.0038488582 0.06766378 -0.09615144 -0.051567588
0002e0 97 00 dd 3d 20 f3 61 bd 82 0e 01 3e 1e e0 7f 3d
       0.10791128 -0.055163503 0.1260319 0.062469594
0002f0 78 8d 11 be 08 33 88 3d 53 8e b3 bd ee da 18 be
       -0.14214122 0.066503584 -0.087673806 -0.14927265
000300 d5 10 20 3e 1c 1b e1 ba 78 e0 24 be 80 0d 97 3d
       0.15631421 -0.0017174217 -0.16101253 0.07375622
000310 1f 88 4e 3d 94 76 04 be 0d 8d 21 3e 6e 5e e5 bd
       0.050422784 -0.12935859 0.15776463 -0.11199652
000320 35 6a 13 3c 1b 51 6b bd f9 48 fd 3c 48 ac ed 3d
       0.00899749 -0.057450395 0.030918585 0.11605126
000330 32 9c a9 bd 63 41 15 3e 1e e5 c3 bd 6e 1c b2 bd
       -0.08281745 0.14575724 -0.09565185 -0.08696829
000340 a2 f6 b9 bd bf 45 b7 3c f2 0a d7 bd 17 c4 e2 bd
       -0.090802446 0.022372125 -0.105001345 -0.110725574
000350 ad d1 19 3d 48 b0 11 3e 0e b5 65 3d 82 12 db bd
       0.037553478 0.14227402 0.05608087 -0.106968895
000360 33 f9 95 3d e2 6d 08 bc 69 d9 d0 3d de a4 23 3e
       0.073229216 -0.008326979 0.10197718 0.1598086
000370 6f 79 9d 3c 03 29 3c bd 70 68 e6 3d d7 a5 9b 3a
       0.019222943 -0.04593755 0.112503886 0.0011874986
000380 b1 54 ed bd c8 81 4d 3d 72 ce db 3c 29 d5 52 3d
       -0.11588419 0.050172597 0.02683184 0.051472817
000390 fa 42 00 be fb e2 d8 3a 20 05 85 3d fb 95 f4 bd
       -0.1252555 0.0016547138 0.06495118 -0.11942669
0003a0 82 4a de 3c fb 02 97 bd c2 24 be bd 25 f8 9a bd
       0.027135137 -0.07373615 -0.09284355 -0.07566861
0003b0 db 29 21 bd 7b ac d6 bd d1 6f 35 bd 0e cf d6 3d
       -0.039346557 -0.10482117 -0.04429609 0.10488711
0003c0 91 b4 f9 bd 99 61 be bd db 56 0d 3d 46 12 11 3d
       -0.121926434 -0.09295959 0.03450666 0.035417818
0003d0 92 4d 10 be 32 e3 f4 3c 35 f8 64 bb 77 00 14 be
       -0.1409209 0.029893491 -0.0034937982 -0.14453302
0003e0 b2 7e 08 3e 28 d7 08 3e f1 26 fc 3b 69 37 09 be
       0.1332958 0.13363326 0.007695072 -0.13400044
0003f0 76 18 34 3c 97 47 13 3e 84 b8 34 bd 05 d0 08 bc
       0.01099216 0.14382778 -0.04412128 -0.008350377

bias f4 [20]
000000 92 be 18 be 86 7b f4 3d c3 05 f2 36 6b 0e 88 3d
       -0.14916447 0.11937623 7.2128328e-06 0.06643375
000010 38 56 ef 3c 62 67 b0 3d 5d d6 ec 3d 89 e1 d3 3d
       0.029215917 0.08613469 0.11564324 0.10345752
000020 d3 cc ad bd 3e 32 81 3d 9c 9c ff 3c f4 10 c7 3d
       -0.08486333 0.06308411 0.031202607 0.097200304
000030 c9 18 e8 3d 0f c7 56 bd 46 5f 8a 3d 85 7b 0c be
       0.113328524 -0.05243593 0.06756453 -0.13718994
000040 b6 2d f1 bd 0a 4a 35 bd c8 52 0c be 78 de a9 3c
       -0.11776297 -0.044260062 -0.13703454 0.020735964

weight f4 [1, 20]
000000 dc 1c b9 3d 52 8b 18 3e d7 e8 0e be e5 ea b0 bd
       0.090387076 0.14896896 -0.13956009 -0.086385526
000010 19 bf ec 3d 06 0b 14 be 72 3b 1c 3c 83 e1 85 3d
       0.115598865 -0.1445733 0.009535657 0.065371536
000020 69 6d 19 be 86 6d a8 bd 9f e9 10 3e 83 cf c4 3c
       -0.14983143 -0.08224015 0.1415162 0.02402473
000030 3c d7 d5 bb 6a 8d 36 be e9 a8 13 be c4 bd bf 3d
       -0.006525902 -0.17827383 -0.14419903 0.09362367
000040 d0 39 92 3d 6a a1 89 bd b8 de 64 be 84 5d 3f bd
       0.07139933 -0.067202404 -0.22350585 -0.046720043
