pytorch_learning/MathorCup/nnnnn1.pth (torch, 10991 bytes, 7 tensors)

weight f4 [20, 1]
00000000: 4c57 533f df6b 2b3f c86e e03e d63a 603f
00000010: 63bc 433f 6e1c 203f 1c34 6e3f 750e 1fbe
00000020: 103e aabe bc1f c7be 60ec 813f 4ea9 483e
00000030: 020d 60bf 35ee d0be 68d7 c7be 28a8 0a3f
00000040: 4b22 823e d074 6c3e 8858 653f e090 b1bd
0.8255508 0.66961473 0.4383452 0.87589777 0.7645933 0.6254338 0.9304826 -0.15532859
-0.33250475 -0.388914 1.0150261 0.19595835 -0.8751985 -0.40806738 -0.3903153 0.54162836
0.25416788 0.23091435 0.8958821 -0.08670211

bias f4 [20]
00000000: 2396 f53e b102 443f de55 40bf 4813 f4be
00000010: a8d7 2dbd d663 46bf 9cd3 473f aba8 f23e
00000020: 7c13 e8be 54a9 c0be 2c79 06be 5a9d 593f
00000030: fc27 69bf 2013 4e3f 3031 d0be 1449 1abf
00000040: 76f9 093e be4b 443f a495 dc3e 04fe b6be
0.47966108 0.76566607 -0.7513102 -0.4767096 -0.042441994 -0.7749609 0.78057265 0.47394308
-0.45327365 -0.37629187 -0.13132161 0.85005724 -0.91076636 0.8049793 -0.40662527 -0.6026776
0.13474068 0.76678073 0.43082917 -0.35740674

weight f4 [40, 20]
00000000: b09b 5c3d 50c4 443e 6e50 5fbe c057 2e3e
00000010: 65de 99bd 8451 533e 495a 74bc f33d 01be
00000020: cc12 ca3d 6217 273e 80ee 493d e3e1 42be
00000030: f0a2 6cbd 4a4d 173e 9153 5abe e8b9 10bd
00000040: a9bf 5a3d 8ab6 fb3d e797 303c 48c3 9a3c
00000050: ff6a 223e d2a1 813c 2c5d c93d 46bb 0bbe
00000060: 6fd3 9a3e e8d7 99bc 04c7 30be 78ae 333e
00000070: 4240 223e 68c9 613d 8fea b63d b7d9 4f3e
00000080: 14a1 3abd a055 60be d338 53be c0a4 a83d
00000090: c551 f13d b2a9 98bd 5a79 5a3e 42dd 1d3e
000000a0: 587f 1abe 4bea 90bc 2cf4 1abe 4427 3a3e
000000b0: afa6 3a3e 9c45 8b3d ce95 22be ee6a 3a3d
000000c0: 0a6e 31be 7486 f3bd 3a49 bebc 2905 ebbd
000000d0: 3f72 48be c831 bbbd 6008 4a3c c012 143e
000000e0: 7ae2 8fbd f75a 80bc feb9 4c3e 409b a63d
000000f0: 1d32 1bbe 12ce 06bc 5458 5d3e f408 7dbd
00000100: d6dc 90be ec9d cdbd b72f 2ebe 4b0d 3ebe
00000110: b417 28be b091 33be 1330 b6be e640 153e
00000120: 6999 57be 2b49 8d3d dd20 52be 870d 18be
00000130: d865 acbc c080 2d3e 0aac 2cbe e646 133e
00000140: 4d7c c7bd e070 4a3d 90d9 af3d 516a 20be
00000150: 5155 663d 1ec2 2b3e 9153 89bd 2239 3ebd
00000160: d0e5 9f3d 1024 d23c f76d cabc cd99 243c
00000170: 5366 0fbe 3352 47be ab64 44be 80d9 993c
00000180: 9396 253e ae7c 92bd 5d16 59bd 2a60 403e
00000190: 0969 ba3d 9110 083e e081 583c 40f6 a4bd
000001a0: d36b 123e 8609 193e 9bb6 67bd 2fb0 5a3d
000001b0: 0437 5bbd 4b23 60be 7d32 7c3c 60da 5c3c
000001c0: f4a4 073e 9b21 a53d ec1b ee3d cc0c 14bd
000001d0: 12e3 32be e70f 29be 3c5c 65be 7cd5 4d3e
000001e0: d048 523e 89ac f03d b860 3e3e 9ce7 1a3e
000001f0: 3602 ad3d 5ff4 2ebe 2778 3d3e a754 56be
00000200: 2876 8dbd f2d4 123e b582 a43e a8b9 383e
00000210: d6f2 c5bd fb06 133e 46a9 b7bd 489f 9abd
00000220: da74 323e 922c dcbd a289 083e 962e 38be
00000230: 88dd 953d b230 053e e8a6 c3bc a2a6 c9bd
00000240: fadb a6bd e0cf 093d aa29 5dbe 757d 33be
00000250: 3823 cdbc f801 91bd 2ccc 91be 5582 333e
00000260: 5ef3 3cbe 6b44 8e3d 105b ac3d 9c71 a53d
00000270: 2628 6abb 8d74 f53d f166 3d3d e05b e6bc
00000280: edb8 c1bb 1766 6c3d 70a5 133d 10e9 303d
00000290: a22c b7be 7a09 3bbe cffe 553e 0712 1b3e
000002a0: 4487 563e f01e ac3c 7e6f be3b 0033 f13d
000002b0: 78e3 6bbd a01b 0b3e 081b a63d 7cbe 523e
000002c0: 15d1 35be acf8 083d ec05 0e3e b7a3 f0bd
000002d0: 16e3 3f3e 77e0 25be 001e eabb 10e7 73bd
000002e0: d3c0 37bd ee09 2dbe d545 2b3e 2505 37be
000002f0: c01e f2bc e485 59be 0d85 72be 375b 84bd
00000300: fd9c 44be ee5d efbd 409f 1e3e 401b de3c
00000310: 60a2 c2bc fd89 04bd d72a 3abe b050 8e3c
00000320: 423d 263e edf4 933d a453 01bd 56c8 3a3e
00000330: d43e e4bd b8f8 55be 2160 84bd 962b 6e3d
00000340: 5c95 853d 26a8 b6bd 6bf3 4c3e 779b 623d
00000350: f487 f53d 9f96 403d 961d 4bbe f8f7 973d
00000360: 0d3d ab3d 7d70 a3bd 5493 39be 540e 95bd
00000370: d1ff 51be 85fc 96bc 04bc 53bd 8606 c7bd
00000380: fe16 853d 70b5 acbc 8ef9 b3bc 2e73 a53c
00000390: 94eb 40be 009d 37be d3af 9d3e 924c 2d3e
000003a0: 4011 af3d 6ec7 323c 1643 203e 8a09 f2bd
000003b0: f438 bc3c 9005 0d3e 6d3d c43d 03e9 30be
000003c0: c613 db3d af6c 21be 60a0 ce3d 2827 74bd
000003d0: 6008 b0be 5089 503c 413e 043e 0cdb 283e
000003e0: 3c97 f7bd b8ac fe3d b962 b8be d97b 52be
000003f0: 9020 883c b13a a3bd 8830 423d b8e4 05be
0.053859413 0.19215512 -0.21808025 0.17025661 -0.075131215 0.20636564 -0.014914104 -0.12621288
0.098668665 0.16317514 0.049299717 -0.19031481 -0.057772577 0.14775577 -0.2132094 -0.035333544
0.053405438 0.12290676 0.010778404 0.018891945 0.15861128 0.015824232 0.09832224 -0.13645658
0.30239436 -0.01877971 -0.17263418 0.17547023 0.15844825 0.055123717 0.08931457 0.20297895
-0.045563772 -0.21907663 -0.20627145 0.082345486 0.117831744 -0.07454242 0.21335354 0.15416434
-0.1508764 -0.017689845 -0.15132207 0.18179041 0.18227647 0.06800386 -0.15877458 0.045512132
-0.17327133 -0.11890879 -0.023228277 -0.114755936 -0.19574831 -0.091403544 0.012331098 0.14460278
-0.07025619 -0.015668375 0.19992825 0.0813508 -0.15155835 -0.008227842 0.21615726 -0.061776116
-0.28293484 -0.10039887 -0.1701039 -0.18559758 -0.16415292 -0.17536044 -0.35583553 0.14575538
-0.21054615 0.06898721 -0.20520349 -0.1484891 -0.021044657 0.16943645 -0.16862503 0.14382514
-0.09740505 0.049424052 0.08586419 -0.15665556 0.056233708 0.16773269 -0.06705392 -0.046441205
0.07807505 0.025651962 -0.024710638 0.010046435 -0.14003877 -0.1946495 -0.19179027 0.01878047
0.16170721 -0.07152687 -0.052999843 0.18786684 0.09102065 0.1328757 0.013214558 -0.08054781
0.14298944 0.14945039 -0.05657063 0.053390678 -0.053519264 -0.21888463 0.015392897 0.013479799
0.13246518 0.0806305 0.116264194 -0.036145017 -0.17469433 -0.16509973 -0.22398466 0.20100969
0.20535588 0.117516585 0.18591583 0.15127414 0.08447687 -0.17085408 0.18502866 -0.2093073
-0.06907302 0.14339045 0.32130972 0.18039572 -0.09665458 0.14358132 -0.08967833 -0.07549912
0.17427388 -0.107506886 0.13333753 -0.17986521 0.07317644 0.13006857 -0.023883298 -0.09846236
-0.08147426 0.03364551 -0.21597925 -0.17528327 -0.025041208 -0.07080454 -0.28476083 0.17530186
-0.18452212 0.069466434 0.08415806 0.0807831 -0.0035729497 0.11985121 0.04624075 -0.028119981
-0.0059119374 0.057714548 0.036046445 0.043191016 -0.3577624 -0.18265334 0.20897983 0.15143596
0.20950037 0.021010846 0.0058116307 0.117773056 -0.057589978 0.13584757 0.081106246 0.20580477
-0.1775554 0.033440277 0.13869447 -0.11749976 0.1873897 -0.16198908 -0.0071446896 -0.05954653
-0.044861626 -0.16898319 0.16725858 -0.17873056 -0.029555678 -0.21242481 -0.23683567 -0.0646271
-0.19200511 -0.116878375 0.15490437 0.027112603 -0.023759067 -0.03235816 -0.18180405 0.01737246
0.16234306 0.0722445 -0.031573907 0.18240485 -0.11144796 -0.2089566 -0.06463648 0.058147036
0.06522629 -0.089187905 0.20014732 0.055324044 0.119888216 0.047018643 -0.19835505 0.07420343
0.08361254 -0.0798044 -0.18122607 -0.072781235 -0.20507742 -0.018430958 -0.051692978 -0.09718041
0.06498526 -0.02108261 -0.021969583 0.020196524 -0.18839866 -0.17930984 0.30798206 0.1692374
0.08548212 0.010911806 0.15650591 -0.11818226 0.022976376 0.13771653 0.095820285 -0.17276387
0.10697131 -0.15764116 0.10089183 -0.059607655 -0.3438139 0.01272805 0.12914373 0.1648981
-0.120893925 0.12435287 -0.3601282 -0.20555057 0.01661709 -0.07970179 0.047409564 -0.1307553

bias f4 [40]
00000000: fc66 1c3d ec61 eebd 64ed 4abe 0a48 883d
00000010: 09f2 3d3d 9b2c 70bd 0bbb 553e d830 39be
00000020: b42e 3ebe 69e2 423e 6339 333e e158 1abe
00000030: 7af5 823d d79c da3d 0dfe 353e abea 053c
00000040: 0797 fbbd a62d 533e e9d5 193e daf8 ecbc
00000050: 04ff b7bd c792 0dbe d7fe 083e b939 a43d
00000060: 9cd9 8a3d 7294 fe3d efab 4e3e 0a5a 213e
00000070: 5244 913c 3cec 093e 7c86 43be 9182 6e3d
00000080: a2e9 d33d 5e38 98bc 4db5 273d 863d 38be
00000090: 2407 17be 0ed5 63be 1097 673e 16bd 7bbd
0.03818415 -0.11639771 -0.1981712 0.06654365 0.0463734 -0.05863629 0.20872132 -0.18085039
-0.18572503 0.19031681 0.1750236 -0.15072967 0.06394477 0.10674446 0.17772694 0.008173625
-0.122846656 0.20622882 0.15023006 -0.028927255 -0.08984187 -0.13825522 0.13378464 0.08018822
0.06779787 0.124306574 0.20182775 0.15757003 0.017732773 0.13469023 -0.1909427 0.058229987
0.10347296 -0.018581565 0.040944386 -0.1799222 -0.14748818 -0.22249243 0.2261622 -0.061459623

weight f4 [20, 40]
00000000: 3ba4 123e 20aa dcbb ce4b da3d 86fb 963d
00000010: dce0 6fbd 10e9 abbc 6dfa 1fbe 4af0 a5bd
00000020: f562 8dbd b650 db3d a0eb b33b d81c 323d
00000030: 40f6 e33c 2053 f3bc 8068 e83c 037b bebd
00000040: 81bd b8bd 0052 debd d590 143e 5602 cb3d
00000050: 801a 1bbe 920f 8d3d 9dd9 fbbd af96 143e
00000060: b897 9cbc 0606 04be 29e5 013e 3eff 9f3d
00000070: 2aff de3d 6453 afbd 483d 16bd 2c4e 2c3d
00000080: 480d cebd 9588 c3bd 84b3 01be 442c a03d
00000090: 94e1 0abe 403e a33b 888c 66bd ee2a ad3d
000000a0: 5a31 993d 4625 9abd cecd bc3d d1f0 1d3e
000000b0: 72fb e93d fcde 1cbe ffd6 b1bd 7025 98bd
000000c0: c00f 34bd c002 0f3b 8081 dfbd 2951 9abd
000000d0: 401b 78bb d5e9 1f3e 6d6d 99bd dab0 a9bd
000000e0: 38b8 fdbc f4ef 963d 6e94 cc3d 0d84 0dbe
000000f0: b455 483d 9ca5 2c3d 9869 c8bd e01c 7c3c
00000100: c685 b33d 007c a0bc 5624 d53d d3c7 0abe
00000110: 80dd 32bd 8cc8 3ebd 4e5f 34bd 40cf 003b
00000120: a0ba 683c f68d fd3d e828 c1bc 7e65 cbbd
00000130: 8c07 8abd 141e 6f3d 82dc f73d 43fd 153e
00000140: 253f d13d 41e5 13be de3e cabd ecb0 ce3c
00000150: 42e9 383d 079f 3639 2e38 f7bc df44 243d
00000160: 8910 d13c 3d2a e23b fcab 96bc 2da8 ddbc
00000170: 1585 d43d e750 25bd 8ea4 91bd 13f7 9e3b
00000180: 3496 eabd b475 d4bd d394 383d 399b 673d
00000190: 4968 1cbe 2840 fe3d 688b 8c3d 5ba9 acbd
000001a0: c6d5 573d f50e 23be 50e2 2ebc b4e8 f53d
000001b0: 644a 9dbd f3fd 59bd 84f4 263d b7b9 063e
000001c0: 8365 eabb 2848 18be b13a 21bd bcb7 e3bd
000001d0: d9c0 a53c 5270 f0bd f3be f53d 052e c6bd
000001e0: 924f b0bd 2dd6 66bd a815 bdbd dd9e 863d
000001f0: 6bfc 4c3d a130 1d3e 22a3 dfbd f4a8 8fbd
00000200: fbd2 753d 75cd f73c 73fd f7bc 6f9a b53d
00000210: 0e4f 193e 35d1 ee3c 5c8a bf3d 8033 0fbe
00000220: f242 f7bb 8253 113e dee4 0b3e 2af1 f53c
00000230: 6933 bbbd 8654 13be f1e8 8dbd 88b1 333c
00000240: 1f35 afbd 3487 c0bd b6c6 96bd 968f 13be
00000250: abf2 ecbd 0be0 1b3d 9fa5 22bd 7486 01be
00000260: 8efc 293c 63d7 18bd bc8e f03d ca8d 163e
00000270: f971 673d cebc 923c 8a7a a93c fa94 cebd
00000280: dae2 a0bc 64a3 86bd f9a0 02be 1b4b 0e3d
00000290: 6c67 b9bc a1cc f9bc 54d8 833d 91c4 debd
000002a0: be95 fa3b 5460 fbbd beee d7bd 588f 773d
000002b0: d108 25be edc3 753d b4cc 0abe 8173 9a3d
000002c0: 1621 083e c26a 653c 5b95 e53d 5a5e 163e
000002d0: b1fb 6fbd a27e dc3b 0ffd 8c3d 0947 d23d
000002e0: 791e a1bd 93bc 803a aa84 0a3e 336f 263d
000002f0: 59ba 323d e3af c8bd a7a4 8e3b b282 9b3a
00000300: e030 90bd 2790 18be 2153 073d c794 f2bd
00000310: 3e1e 89bd d50e f7bd c31c 6a3d 533d 1cbe
00000320: b6b7 4bbd a20c b3bd e1f5 113e e0d8 efbb
00000330: 86a7 d8bd 5764 bfbd a3cf eabd 111b 14be
00000340: 1ea0 f23d 0578 0abe 6099 a53b ead6 9d3d
00000350: 88b5 403d 2c8e 02be c52c b5bd 7a41 e33d
00000360: bbe1 183e b4b8 b23d 1221 15bd 99e6 97bd
00000370: 6a39 d53d 4399 033e e0ab 753d a0a8 c2bc
00000380: 3a16 c8bd c72a 94bd ec46 69bd ad80 1cbe
00000390: 2ee6 d53d 7d6b 16be 404f 3fbb de19 e4bd
000003a0: f580 203e cb39 153e 2457 b1bd 9033 69bc
000003b0: 21e0 edbd 2a78 c9bd dc56 18be 9eb4 d63d
000003c0: 2079 46bd a40c 9e3e deda 0d3e 752c 8abe
000003d0: 16ff ed3d f4c5 033d d7ac 0bbd c07f 41be
000003e0: ce3e 78bd dec7 afbd da37 debd 8b22 7d3e
000003f0: 91a7 3fbe e06a 1bbe 8c52 ed3d 19fd 48bd
0.14320461 -0.0067341477 0.1065899 0.07372193 -0.058564052 -0.020985156 -0.15622874 -0.08102472
-0.0690364 0.10708754 0.005490735 0.04348454 0.027827382 -0.029702723 0.028370142 -0.093008064
-0.0902052 -0.10855484 0.14508374 0.09912555 -0.15146828 0.068877354 -0.12297366 0.14510606
-0.019115314 -0.12892923 0.12685074 0.078123555 0.108885124 -0.085608274 -0.036679536 0.042066738
-0.10061127 -0.09547535 -0.12666136 0.07820943 -0.13562614 0.004981786 -0.056286365 0.08455454
0.07480116 -0.075266406 0.09218942 0.15423895 0.114249125 -0.15319437 -0.086835854 -0.07429016
-0.043960333 0.0021821707 -0.10913372 -0.07535011 -0.003785804 0.15616544 -0.074915744 -0.08285685
-0.030971631 0.07369986 0.09989248 -0.13819905 0.048909858 0.042150125 -0.097857654 0.015387744
0.0876575 -0.019590378 0.10407321 -0.1355279 -0.04366827 -0.046577975 -0.044036202 0.001965478
0.014204651 0.123805925 -0.023579076 -0.099314675 -0.06739721 0.058378294 0.121026054 0.14647393
0.10217122 -0.14442922 -0.09875272 0.025230847 0.045144327 0.00017416115 -0.030178156 0.040104743
0.02552058 0.006902008 -0.018392555 -0.027057732 0.10376946 -0.040360358 -0.071114644 0.004851231
-0.1145443 -0.103740126 0.045063805 0.056544516 -0.15274157 0.124145806 0.06862527 -0.084307395
0.052694105 -0.15923674 -0.010674074 0.12007275 -0.076802045 -0.0532207 0.040760532 0.13156782
-0.0071532144 -0.14871275 -0.039362613 -0.11119029 0.020233558 -0.117401734 0.11999311 -0.09676746
-0.08608927 -0.056356598 -0.09232646 0.065732695 0.050045412 0.15350582 -0.10919787 -0.07014647
0.06001566 0.030249337 -0.030272221 0.088673465 0.14971563 0.029152492 0.09352562 -0.1398449
-0.0075458223 0.14192012 0.13661525 0.030022223 -0.09140665 -0.14387712 -0.06929196 0.01096762
-0.08555054 -0.09400788 -0.0736212 -0.14410242 -0.11569723 0.03805546 -0.03970873 -0.12648946
0.010375155 -0.037314784 0.117459744 0.14702526 0.056505177 0.017912295 0.020688314 -0.10087009
-0.019639421 -0.06574133 -0.12756719 0.034739595 -0.022632323 -0.030493082 0.06437746 -0.10877336
0.007647245 -0.122742325 -0.10543583 0.060439438 -0.16116644 0.060001303 -0.1355465 0.07541562
0.13293871 0.014002504 0.11210128 0.1468443 -0.05858964 0.006728963 0.068842046 0.10267455
-0.0786714 0.0009821824 0.1352717 0.04063339 0.043634746 -0.09799173 0.004353124 0.0011864512
-0.07040572 -0.1489874 0.033038262 -0.11844783 -0.06695221 -0.12063376 0.057156336 -0.15257768
-0.049735747 -0.08742644 0.14253952 -0.0073195547 -0.105788276 -0.0934531 -0.11465385 -0.1446345
0.11846946 -0.13522346 0.005053684 0.07707007 0.04704812 -0.12749547 -0.0884643 0.11096473
0.1492986 0.087266356 -0.03640849 -0.0741703 0.104113415 0.12851433 0.059978366 -0.023762047
-0.097698644 -0.07234722 -0.056952402 -0.15283461 0.10444294 -0.14689441 -0.0029191524 -0.11137746
0.15674193 0.14572828 -0.08659199 -0.014233485 -0.11615015 -0.098373726 -0.14876884 0.10483669
-0.048455358 0.3086902 0.13853022 -0.26987043 0.116209194 0.032171205 -0.03410038 -0.18896389
-0.06060677 -0.085830435 -0.108504966 0.24720208 -0.18716265 -0.15177488 0.1158801 -0.049069498

bias f4 [20]
00000000: a8ea 513d 8045 313c d827 e23d e8b7 b73d
00000010: e3c0 d7bd 604d 783d a3e6 573d d4da dbbd
00000020: 5c88 503d 9700 a3bc 44a8 06bd 5ae2 debd
00000030: 1456 ff3c 718f 30bb 7d02 ed3c 1ad1 0b3e
00000040: 1596 c23d 2af7 843d 6e56 f5bd bc86 f5bd
0.051249176 0.010819793 0.11042756 0.08970624 -0.10534837 0.060620666 0.052710187 -0.107350975
0.050911292 -0.019897742 -0.032875314 -0.10883017 0.031168975 -0.0026940966 0.02893185 0.13653985
0.09501282 0.06492455 -0.11979376 -0.11988589

weight f4 [1, 20]
00000000: f59d 4fbe 44c5 21be b7cf 67be 1ef3 2d3e
00000010: b649 94bd 4055 0e3e 8487 3a3e ffc7 38be
00000020: 002c bbbb ead7 60be 7094 af3d 7cd8 473e
00000030: 4baf ccbc d409 c0bd dd6e 7f3d 4da0 783d
00000040: d197 1c3e 8d67 a73d a7bf 56be 1ed2 583e
-0.202751 -0.15797907 -0.2263783 0.16987273 -0.07240622 0.13899708 0.18215758 -0.18045042
-0.0057120323 -0.21957365 0.08573234 0.19516176 -0.02498593 -0.093768746 0.062361587 0.06069975
0.15292288 0.081740476 -0.20971547 0.21173903
