pytorch_learning/MathorCup/nnnn1.pth (torch, 10991 bytes, 7 tensors)

weight f4 [20, 1]
00000000: 0194 dbbe 0c0b 43bf 2d2f 843f 09e7 173f
00000010: a64c 17be 9c31 b3be 2c20 9d3e 2f53 743f
00000020: c6cd 803f 4343 6abf fa2b ca3d 0b2b 1cbd
00000030: 222a 5bbf e892 d43e 3f0a 903f a1cb 24bf
00000040: 5257 a13e 9e1e 80bf fc31 06be 7d7e 74bf
-0.42886356 -0.7618873 1.0326897 0.59336907 -0.14775333 -0.34998786 0.30688608 0.9543943
1.0062797 -0.91508883 0.09871669 -0.038126986 -0.85611165 0.4151833 1.1253127 -0.64373213
0.31511933 -1.0009344 -0.13105005 -0.95505506

bias f4 [20]
00000000: 9f72 6c3d 6eb5 593f db56 a43d ab2f 273f
00000010: 4625 bb3e 3645 523d 88cc 16bf ab84 7fbd
00000020: 07d4 b13e dd2c 093f fb21 c33e e49c 4d3f
00000030: 7068 38bf 1ab2 26bf 2f83 1a3e 715f 213f
00000040: dc42 623f 0f45 9dbd a60f 103f 6c30 043f
0.0577265 0.85042465 0.08024379 0.6530711 0.36551875 0.051335536 -0.5890584 -0.06238238
0.34732077 0.5358408 0.38111863 0.8031752 -0.7203436 -0.6511551 0.15089105 0.6303626
0.8838327 -0.076791875 0.5627388 0.51636386

weight f4 [40, 20]
00000000: e19e 1a3d a4bf e2bd c2d1 403e be27 053e
00000010: 22f4 48bb 1e52 cdbd ff29 d6bd fab2 e53c
00000020: 8003 2bbe 6cdd c9bd 098d 4cbd 870d 2a3e
00000030: 227b 1a3e 2466 df3d 3610 15be 30c7 1fbd
00000040: a7c1 a43d 8ec2 58be f8dc 9f3d 08fb 883d
00000050: 74eb cdbd 1464 abbd 7286 8bbd f373 303b
00000060: 0271 003d 9b55 7bbe 65d2 cbbd 8a21 2bbe
00000070: a5de fc3d 10f5 55be 70cb dcbb 45a4 503c
00000080: f88f 423e ec79 8c3d d396 33be c2b4 0f3e
00000090: c42f 19bd d2df a5be 31b2 40bd b82d 583e
000000a0: 3500 79be 05a3 393d 7d0b 73be 1b6f 033e
000000b0: 2a91 c33d f5fb 8cbc d0e6 1a3d 6b39 c3be
000000c0: 594c 043c 7cd9 473c aa6d 62be 0ddc 1c3e
000000d0: f69a 33be 3677 643e 1230 cebd f6e9 d8bc
000000e0: ca62 293e 6ccf 7e3d 4087 a53d 2921 17be
000000f0: 69ce 0e3d 8fad f93d 2bed 35be 0fcf 31bd
00000100: b585 dd3d 25b8 6a3e fe27 3bbe f772 d93d
00000110: 4392 aabc 2d6d 543e 7994 4e3e 414c 5e3e
00000120: dc98 613e 2e97 3a3e a92d 603e e9c2 b3bd
00000130: 76ad fe3d 9a96 e5bc 02ce 2abe 458f b03d
00000140: e4f7 0ebe 504b 813d 3c45 713e 8d48 33be
00000150: 4791 8f3d a218 17be f03d cd3d f7b2 323d
00000160: d017 d8bd 4146 d23b d6f0 083e 6593 97bd
00000170: 45b7 dbbd 1c07 67bd f195 493e 40c6 39be
00000180: a439 d23c 0e33 0d3e 2dd0 45be f034 cfbd
00000190: 27c5 0e3e 3e7c 213e 7cc9 fdbd 3395 27be
000001a0: 542b 473e 5cf2 603b a615 493e 6e30 073e
000001b0: ffdd f53c 234c 803d 8390 423e 705c cabd
000001c0: 20f7 4ebd c063 483d 303d d8bd 0f9a 263d
000001d0: 2c5a 9e3d 0f4a 9ebc f35a 063e 1d73 babd
000001e0: 0f66 e33c 2b78 71be 2179 47be d20d c03d
000001f0: 8862 11bd 26dc 1bbe 889a 0d3e 67ea debe
00000200: e1b9 c23d 7ae8 303e 0608 573d ba1c 2abe
00000210: 1812 773d ec0f 0cbe 40af 1abe 10db 4f3e
00000220: f8ce b73d bbc3 abbc ce54 af3d 17cd 3b3e
00000230: f9c8 62be df5d aabd 9168 03be f8ed 50be
00000240: 31cb 4e3e e9e2 e43d 1c51 a73d 154e a0be
00000250: 9605 b2bd 737d 0e3e 207a 023e dfab cf3d
00000260: 7c00 9b3d a889 5d3d cefe 03be 3963 543e
00000270: 0ae3 0fbe 32b0 b23b d134 403e bc0d 09be
00000280: 484a df3c 1d10 3abe 1ad2 be3d e6a7 c63d
00000290: 6c48 e73d ec5d 043d 986c b53d 286a e33e
000002a0: 2f38 08be 6578 a43d 3bf1 ebbd dbbf 32bd
000002b0: c82a 093e 1c8b 323e 9cfe 01be cec6 b9bb
000002c0: 6e03 4abd f67c f4bd 27b7 b13d 46c5 8a3c
000002d0: 075a 2ebe 4cb9 a93d 0c50 29be 7f1d 0cbe
000002e0: f45e a7bd 5d0e 4bbc 3227 57be 3889 363e
000002f0: a352 dc3d eea1 a1bd 8e6d bebd 19af 323d
00000300: a875 acbc c83c ba3c 6129 37be 7c62 9d3d
00000310: 2da2 573e 7883 f63d 8520 103e ae4e 523d
00000320: 54ee eabd c4bc 4fbe 62db 30be 8b30 44bd
00000330: ffb2 0abe 0965 51be 0a1d 033e f9fc 0bbe
00000340: f834 d63d 80fa 553e e5a6 583d 4f9a a7bd
00000350: e631 253e 283b fcbd 19f5 1fbe a1b7 523e
00000360: 78da 103e 3f4b 823d 65fd 25be 7992 13be
00000370: b49d 813e d4d9 cf3d 8971 04bd 2859 db3d
00000380: 4795 b43a 7cad 933c fcf0 08be 249c 913e
00000390: 16b3 50be 687e bc3d 778f 1c3e d0b0 bd3d
000003a0: 9ef0 c2bd 1c48 283e 9ab4 1e3e 164a 0abe
000003b0: 4668 22be 34ce 753d f2be 11be e8e6 d3bd
000003c0: f834 3bbb fe6a 8cbd 8a6a 7b3c dcf5 d3bd
000003d0: 40a2 3ebe e008 c2bd cd14 01be 4bef eb3e
000003e0: 3d1e 26be ed58 00be 171f 12be ff49 f6bd
000003f0: e2b3 2a3e 9413 0dbe a768 21be 7272 d5bd
0.037749175 -0.11071709 0.18830016 0.13003442 -0.0030663093 -0.10025428 -0.10457229 0.028039444
-0.16700554 -0.09856686 -0.04993919 0.16606723 0.15086034 0.10908154 -0.14556965 -0.03900832
0.08044749 -0.21167967 0.07805818 0.066885054 -0.10054675 -0.08368698 -0.06812753 0.002692458
0.031357773 -0.24544375 -0.09952239 -0.16712013 0.123471536 -0.20894265 -0.006738119 0.012734477
0.19000232 0.06859192 -0.17538004 0.14033797 -0.03739907 -0.32397324 -0.047044937 0.2111119
-0.24316485 0.045321483 -0.23734851 0.12835352 0.09549172 -0.017209986 0.037817776 -0.38129744
0.008074843 0.012197848 -0.22112146 0.15318318 -0.17539582 0.223111 -0.100677624 -0.026478749
0.16541591 0.06220953 0.080824375 -0.14758743 0.034864817 0.12191307 -0.17766254 -0.043410357
0.10816518 0.22921808 -0.18276975 0.10617631 -0.020821696 0.20744772 0.20173825 0.21708776
0.22030967 0.18221733 0.21892418 -0.087774105 0.12435429 -0.028025914 -0.16680148 0.086210765
-0.1396175 0.06313193 0.23561567 -0.17508145 0.07010131 -0.1475549 0.10021579 0.043627705
-0.10551417 0.0064170663 0.13373122 -0.0740116 -0.10728315 -0.056403264 0.19686104 -0.18142033
0.02566225 0.13789007 -0.19317694 -0.10117519 0.13942395 0.15770051 -0.12391946 -0.16365509
0.19450122 0.0034324145 0.19637164 0.13202068 0.030013083 0.06264522 0.1900044 -0.09880912
-0.050528646 0.048923254 -0.105585456 0.040674265 0.07732043 -0.019322423 0.13120632 -0.09103987
0.027758626 -0.23580997 -0.19479801 0.09377636 -0.035494357 -0.15220699 0.1382848 -0.4353821
0.0950811 0.17276183 0.052497886 -0.16612521 0.06031999 -0.13677949 -0.15105915 0.2029841
0.08975023 -0.020967355 0.08561097 0.18339954 -0.22146977 -0.08318686 -0.12832858 -0.20403278
0.20194699 0.11176092 0.08169767 -0.31309572 -0.08692472 0.13915043 0.127419 0.10140204
0.07568452 0.054086357 -0.12890169 0.20740975 -0.14051452 0.005453133 0.18770148 -0.13384145
0.0272571 -0.18170209 0.093174174 0.09699993 0.1129311 0.032316133 0.08858603 0.44416928
-0.13302682 0.08030776 -0.115206204 -0.04364 0.13395226 0.17435879 -0.12694782 -0.0056694513
-0.049319677 -0.11937897 0.08677512 0.01693977 -0.1702653 0.08287296 -0.16534442 -0.13683127
-0.08172408 -0.012393561 -0.21011046 0.17825782 0.10757949 -0.07892214 -0.0929824 0.043624017
-0.021052197 0.02273406 -0.17886879 0.076848 0.21057959 0.120367944 0.14074905 0.051344566
-0.11471239 -0.20286852 -0.17271188 -0.047897857 -0.13544844 -0.20448698 0.12804046 -0.1367072
0.10459322 0.2089634 0.052893538 -0.08183729 0.16132316 -0.12315971 -0.15620841 0.20577861
0.14145839 0.06362008 -0.16209944 -0.14411344 0.2531563 0.10148969 -0.032334838 0.107103646
0.0013777398 0.01802706 -0.13373178 0.28439438 -0.20380816 0.092037976 0.15289102 0.0926224
-0.0951855 0.16433758 0.15498582 -0.13504824 -0.1586009 0.060011104 -0.14232996 -0.10346776
-0.0028565507 -0.06856345 0.015345225 -0.10349628 -0.18616581 -0.09474349 -0.12605591 0.46081004
-0.16222472 -0.12533922 -0.14269672 -0.120258324 0.16670182 -0.13777 -0.15762578 -0.10422219

bias f4 [40]
00000000: 163f 023e 4e74 4abe 6294 f73d 1ac6 b13d
00000010: 106e 2d3c fc1d 503e 7d92 833d 8a37 a2bd
00000020: 4ec6 69be c303 f93d 338b c5bd d18f 153e
00000030: 5782 593e 3d1e 60be de0f 2cbe b9fa 0fbe
00000040: 128d 02bd 9023 ba3c 20ca edbc 22cd 023d
00000050: b9aa 94bc 32ad ccbc 88df f6bc 2168 8d3d
00000060: 1f65 14be b6b4 bf3c 9155 943d 5922 51be
00000070: 143c 483d bd3c 213e cebb 9b3c 804b 4e3e
00000080: d921 0ebe b4d6 bb3d 0707 b3bc a51e 183e
00000090: 45ac 9abd 13e3 5d3e e639 1e3e 9042 61be
0.12719378 -0.19770929 0.12088849 0.08680363 0.010585323 0.20323938 0.06424425 -0.079207495
-0.22829553 0.121589206 -0.09645691 0.14605643 0.21241127 -0.21886535 -0.16802928 -0.14060487
-0.031872816 0.022722036 -0.029027045 0.03193391 -0.018147813 -0.02498493 -0.030135885 0.06904627
-0.144917 0.0234016 0.07242883 -0.20423259 0.04888542 0.15745826 0.01901045 0.20145988
-0.138801 0.09171811 -0.021853937 0.1485544 -0.07552389 0.21668653 0.15451774 -0.21998048

weight f4 [20, 40]
00000000: d405 db3d f6be 18bd c63d ef3d 33a4 02be
00000010: 0a52 1d3e a7fa aa3c 3f3d 903b d8c6 a9bd
00000020: 58e8 04bd 0cee 1a3e 607e b63d 9901 42bb
00000030: 154d 733c 604c 473d 4b62 14bd 1a45 aa3d
00000040: 9181 6a3d cba6 153d 4d8a 8d3d 285f b8bd
00000050: 95c7 a43c 75f8 27be 4921 383d fba7 393c
00000060: 67a6 f3bc cad0 0dbe b35e a93d 3193 98bc
00000070: f1fe 093e 6437 da3d dd7b a13d e0d4 b23b
00000080: 4a12 533c 9db1 26bb 072d 083e 66b9 de3d
00000090: ae1b 1d3e e73d 7a3d d84f bc3d 6bc4 13be
000000a0: a3c5 1dbe a055 f83c c454 503d c50e 003e
000000b0: a87a ccbd c098 dabd 0884 8f3d 8847 b8bc
000000c0: 8048 393d e001 a83d d11c 0a3e d848 0cbe
000000d0: 80fd 663d 60f2 d8bc 4067 2f3d f69a bcbd
000000e0: 3821 7dbd e039 5e3c 1015 3dbc 40a0 edbb
000000f0: d30b 0f3e 5400 5c3d 700d 343d 6e1b db3d
00000100: b8fe 2ebd 840d 1d3d 566d 21bd 9af7 aa3d
00000110: 1042 10be b4c5 743d 73d9 083e 79a7 01be
00000120: f0c2 31bc 1dbb 95bd 5ff0 083e daf7 16bd
00000130: b08d 163d fc60 a6bd 0071 823d bc5b 9cbd
00000140: 70dd 91bd 8082 80bb d0ac 07be e21c 2fbd
00000150: 4441 0bbe f291 0abe b0c6 b13d 7205 50bd
00000160: b0a3 61bd 007d 2a3d 2213 08bd 62a3 5dbd
00000170: 3cb7 0d3d 9e4c a43d 5322 dabd 33ac 133e
00000180: 7a68 c33d bed1 b83d 11eb 1b3e a2fb 64bd
00000190: 0363 043e 005d dabc 0932 143e 570f 8bbd
000001a0: c71f 1a3e 84b5 c8bd e0ea 873b 0060 98ba
000001b0: 8a34 bdbd da64 fe3d 9ef1 dc3d b978 a8bd
000001c0: 8188 083e 7cd7 7abd 004c 6c3d af49 1c3e
000001d0: c08a 52bb 1a73 e03d bbb0 0abe 38e7 bebc
000001e0: 0dfc 06be 1c23 453d 3846 8e3c c874 ec3c
000001f0: ab02 1a3e ba7f 19be 8c65 103d beca cd3d
00000200: d0ce ccbc 7287 c93d 023b 1dbd 8027 8a3d
00000210: f869 a03c 1916 063e 00f4 f2bb 87fc 07be
00000220: 7bff 193e b495 d3bd 608a 6a3c 5488 403d
00000230: 4861 b8bd 72ed 6bbd 10dd 3d3c 1069 ff3c
00000240: b2ef b53d cac7 cb3d 8dc2 143e 9559 023e
00000250: 4617 7dbd c265 d23d ccce 823d c0ef 15bb
00000260: 5b34 0a3e 6231 d13d b85b de3c 8935 013e
00000270: 2c5c cbbd 3e64 d9bd c4f0 103d 0a62 fbbd
00000280: 2659 19bd c0e7 76bc a0f8 5abd d77b 003e
00000290: 18dd 1c3d 60b4 023d dd76 15be 6337 063e
000002a0: e44d a4bd bc57 14be 5249 f83d c004 113c
000002b0: 865a a93d 8203 f6bd d9ff 013e 423c fb3d
000002c0: 58a4 8dbc 5296 ad3d 7e9d bd3d 4f4f 193e
000002d0: 28b9 853c 2fe6 a9bd 0f48 87bd c061 bc3c
000002e0: 5ae1 4ebd 0635 ff3d 32a1 f43d e64c eb3d
000002f0: d826 e1bd bcee bebd 1aa6 9e3d a5cb 0bbe
00000300: d466 ad3d 489f 9e3d 8a16 c73d daaa b33d
00000310: 24bb a8bd 90d8 67bc bcfe 293d 2023 96bb
00000320: 133d eebd f1b8 073e 20fc f23d 6eae e53d
00000330: 6a47 db3d 9ec5 c4bd aedf 1abe a055 ed3c
00000340: 8e5b 473d f858 d5bd 6c26 11be 7574 163e
00000350: 836a 543c 4b22 bfbd f0df 383c 5e97 0e3e
00000360: 3210 92bd 4c24 2f3d d087 383d 1a46 223e
00000370: 5b99 9b3d 1fa9 f63d de98 ef3d 114e bfbd
00000380: 0e03 febd 7152 a8bd d678 b33d a3d2 d6bc
00000390: 133b f33c a109 df3d 8103 7d3d 9895 5d3d
000003a0: a66b 643d 9267 1fbe 50cd 08bd 5356 40ba
000003b0: 2ae9 0fbd bcc0 d23d 5c3e 5b3d 7c88 59bc
000003c0: e415 023d 1812 753d e310 bfbd 1a24 fd3d
000003d0: 9918 05be f014 52bc d0cb 5cbc ca9b c4bd
000003e0: 20ad 7e3c b2d2 b1bd 1e50 16bd b31b c9bd
000003f0: 5d6b 123e 59f6 0f3e b5f3 073e 2789 9abd
0.10694471 -0.03729149 0.11681704 -0.1275795 0.15363327 0.020871473 0.0044018324 -0.082898796
-0.032448143 0.1512987 0.08910823 -0.0029603003 0.014849921 0.04865682 -0.036226552 0.08313961
0.05725247 0.03653602 0.069111444 -0.090025246 0.0201147 -0.16403373 0.04495362 0.011331554
-0.029742433 -0.13849178 0.082700156 -0.018624874 0.13476159 0.10655096 0.07884953 0.0054575056
0.012882778 -0.0025435456 0.13298427 0.10875206 0.1534259 0.06109419 0.091949165 -0.14430396
-0.15407424 0.030314267 0.05086209 0.12505634 -0.09984332 -0.10673666 0.07007605 -0.022495046
0.045235157 0.08203483 0.13487555 -0.13699663 0.0563941 -0.02648276 0.042823076 -0.09209244
-0.061799258 0.013563603 -0.011540666 -0.0072517693 0.13969354 0.05371125 0.043958127 0.10698591
-0.042723387 0.038342968 -0.03941091 0.083480075 -0.14087701 0.059758857 0.133642 -0.12661542
-0.010849699 -0.0731108 0.13372944 -0.036857463 0.036756217 -0.08123967 0.06369209 -0.076346844
-0.07122314 -0.003921807 -0.13249516 -0.042752154 -0.13599116 -0.13532236 0.08680475 -0.050786443
-0.055087745 0.041623116 -0.03322137 -0.054110892 0.034598574 0.08022426 -0.10651078 0.14421158
0.09541412 0.0902438 0.1522639 -0.05590404 0.12928395 -0.026655674 0.14472212 -0.06790035
0.15051185 -0.09800246 0.0041478723 -0.001162529 -0.09238537 0.1242158 0.10788272 -0.08226151
0.13333322 -0.06124066 0.057689667 0.15262483 -0.0032126158 0.10959454 -0.1354398 -0.023303613
-0.13182087 0.048129186 0.017367467 0.02886428 0.1504008 -0.1499013 0.035253093 0.10048436
-0.02500096 0.09840287 -0.038386352 0.06745815 0.01958178 0.13094367 -0.007414341 -0.13279925
0.15038864 -0.10331288 0.014315218 0.047005013 -0.0900293 -0.057599492 0.01158835 0.031178027
0.08883609 0.09950216 0.1452734 0.12729485 -0.061789773 0.10273315 0.063870996 -0.0022878498
0.13496535 0.10214497 0.027143344 0.12618078 -0.0992969 -0.10614823 0.035385862 -0.12274559
-0.037438534 -0.015069902 -0.053459764 0.12547241 0.03829679 0.0319103 -0.14596124 0.13107066
-0.08022669 -0.14486593 0.1212336 0.00885123 0.08269219 -0.12012388 0.12695254 0.12267353
-0.01729028 0.08475937 0.09258555 0.1497166 0.016323641 -0.08295857 -0.06605541 0.02299583
-0.05050788 0.12461285 0.11944808 0.114892766 -0.10993737 -0.09322879 0.07746525 -0.13651903
0.084668785 0.07745224 0.09721096 0.08772822 -0.08238819 -0.014150754 0.0415027 -0.004581824
-0.11632743 0.13254143 0.11864495 0.112149104 0.107069805 -0.09608005 -0.1512439 0.028971493
0.048671298 -0.1041736 -0.14174813 0.14692862 0.0129648475 -0.09332713 0.01128386 0.1392493
-0.07131995 0.042759225 0.045051396 0.15847054 0.075976096 0.12043976 0.11699079 -0.09341062
-0.124029264 -0.082188495 0.08763282 -0.026223486 0.029691255 0.108905084 0.06177092 0.05409774
0.055766724 -0.15566853 -0.033398926 -0.0007337082 -0.035134472 0.102906674 0.053526267 -0.013277169
0.031759158 0.05983171 -0.09329393 0.123604015 -0.12997665 -0.012822375 -0.013476327 -0.09600027
0.015544206 -0.08682765 -0.0366975 -0.09819736 0.14298768 0.14058818 0.1327656 -0.07545691

bias f4 [20]
00000000: 7dc6 81bc 8e66 0bbe bc6b b6bd ba1d 05be
00000010: e716 1abe 5e6a 96bd a576 99bd 7ccb 183c
00000020: 1319 1f3e 5a0b 03be c54b a43d 2a66 f8bd
00000030: a457 883d 7214 bd3d 73df 0bbd 32cd fdbd
00000040: 57db a5bd 9889 863d b2c3 10be c71e 3f3d
-0.015841717 -0.1361334 -0.089072675 -0.12999621 -0.15047799 -0.07344507 -0.07493333 0.009325858
0.15536909 -0.12797299 0.080222644 -0.12128861 0.06657341 0.09232415 -0.034148645 -0.123926535
-0.080984764 0.06569213 -0.14137152 0.04666021

weight f4 [1, 20]
00000000: ded6 cabc fa5b 053e f80e 183e 3e14 4a3e
00000010: 5961 39be 19af 3bbe 44ce 863d d047 583e
00000020: 6274 023e 5b43 0ebe 8069 813d 5018 51bc
00000030: 2e13 3b3e 4344 4ebe 4d9a d33d 48b9 34be
00000040: fc4e 3d3e 5cb8 3b3e f8cd 47bd caa4 643e
-0.02476066 0.13023368 0.1484946 0.19734284 -0.18103541 -0.18328513 0.06582311 0.21121144
0.12739709 -0.13892882 0.06318951 -0.012762144 0.18269035 -0.20143227 0.10332165 -0.17648804
0.18487161 0.18332046 -0.04878041 0.22328487
