pytorch_learning/MathorCup/nnnnnn1.pth (torch, 10991 bytes, 7 tensors)

weight f4 [20, 1]
0	0xbe446cf0	-0.19182181
1	0xbf308a02	-0.68960583
2	0x3fa14006	1.2597663
3	0xbcd19362	-0.025582973
4	0xbe2830d1	-0.16424872
5	0xbee3015c	-0.44336975
6	0x3d4a5960	0.04940164
7	0x3ef1164f	0.47087333
8	0x3e4481a8	0.19190085
9	0xbe9fb32e	-0.3119139
10	0x3f85c5af	1.0450953
11	0xbefbc2f8	-0.49172187
12	0x3f1fc26e	0.6240605
13	0x3f926180	1.1436005
14	0xbe3cb8d4	-0.18429881
15	0x3d805aba	0.06267305
16	0xbe505c09	-0.20347609
17	0xbeae1f68	-0.34008336
18	0xbe9ba814	-0.3040167
19	0xbe1ceaec	-0.1532399

bias f4 [20]
0	0x3ed0f033	0.40808257
1	0xbf58e632	-0.8472625
2	0xbeb5068d	-0.3535656
3	0x3f933234	1.1499696
4	0x3f273d05	0.65327483
5	0xbf0c2cda	-0.5475594
6	0xbf2b4e4a	-0.66916335
7	0xbf20f7e0	-0.6287823
8	0x3f821046	1.0161216
9	0x3f9e97f2	1.239012
10	0x3ec5f99c	0.38667
11	0xbe10f258	-0.14154947
12	0xbf850255	-1.0391337
13	0xbf119d5c	-0.56880736
14	0x3f3be534	0.7339661
15	0x3f37624e	0.71634376
16	0x3f4ed409	0.8079229
17	0xbf1dda7a	-0.61661494
18	0xbf3f2614	-0.7466748
19	0x3f1be119	0.60890347

weight f4 [40, 20]
0	0x3efd16ea	0.49431545
1	0xbd27b20c	-0.040941283
2	0xbea13675	-0.3148686
3	0x3c3c0f2f	0.011478229
4	0x3ef8b269	0.48573616
5	0xbe0a1b3c	-0.13486952
6	0xbd4698b0	-0.048485458
7	0xbe50054c	-0.2031452
8	0x3d843616	0.064556286
9	0x3ef950ea	0.48694545
10	0x3d056e88	0.032576114
11	0xbd1cc558	-0.03827414
12	0xbe8408ef	-0.25788066
13	0xbedded4f	-0.43345115
14	0x3f0defe7	0.55444187
15	0xbd2e5437	-0.042560782
16	0x3e95887f	0.292057
17	0xbe17d9f0	-0.1482923
18	0xbe1bd490	-0.15217805
19	0x3f29dc44	0.66351724
20	0xbd2c3b7b	-0.042048912
21	0xbd2841fc	-0.041078553
22	0x3eabd614	0.33561766
23	0xbf41832b	-0.7559077
24	0xbf66af86	-0.9011158
25	0x3e59297c	0.21207231
26	0xbd297ae0	-0.04137695
27	0x3f57c09d	0.8427828
28	0xbf1551db	-0.58328027
29	0xbf0bfa15	-0.5467847
30	0xbdee29c9	-0.11629064
31	0xbce70870	-0.028202266
32	0x3f69e2df	0.913618
33	0x3f02cbdb	0.5109231
34	0xbf5e918e	-0.8694085
35	0xbef63d5d	-0.4809369
36	0xbf184d72	-0.5949317
37	0xbdb39ee4	-0.0877054
38	0x3d812b5c	0.06307098
39	0xbf1e38fb	-0.61805695
40	0x3e66d40f	0.22541831
41	0x3dd62a18	0.104572475
42	0xbea4566f	-0.32097194
43	0xbdeb377f	-0.114851944
44	0x3f0ccc99	0.5499969
45	0x3d20d118	0.039261907
46	0x3dc7fad0	0.097646356
47	0xbed0f94a	-0.40815192
48	0x3e301fcf	0.17199634
49	0x3da6adf1	0.081386454
50	0xbe9674d6	-0.29386014
51	0x3e5aacba	0.21354952
52	0xbe90b34b	-0.2826179
53	0xbe7667de	-0.2406306
54	0x3dd10411	0.10205854
55	0x3e1d6ad8	0.15372789
56	0x3e013a80	0.12619972
57	0x3c453760	0.012037128
58	0x3cd8fac0	0.026486754
59	0x3ebe39dd	0.3715352
60	0x3f0c788e	0.5487145
61	0xbdb3e5d8	-0.087840736
62	0xbe7610d5	-0.24029858
63	0x3eb7d903	0.35907754
64	0x3e9e530d	0.30922738
65	0xbe51b388	-0.20478642
66	0xbe0ca43c	-0.13734525
67	0xbe5409df	-0.2070689
68	0xbd22b753	-0.039725613
69	0x3f09e35d	0.53862554
70	0xbe99acb0	-0.30014563
71	0x3d92b8e8	0.07164174
72	0xbe57bd15	-0.21068223
73	0xbeb17087	-0.34656164
74	0x3e7ef830	0.24899364
75	0xbd21595b	-0.039391857
76	0x3e77e346	0.24207792
77	0x3e178f0c	0.14800662
78	0xbe23a642	-0.15981391
79	0x3eb8e969	0.36115578
80	0xbec8902f	-0.39172503
81	0xbdf8e4ed	-0.12153039
82	0x3eba1ce8	0.3635018
83	0xbeb195c8	-0.34684587
84	0xbf470b6f	-0.7775182
85	0xbc9511e8	-0.018197015
86	0xbde880df	-0.11352705
87	0x3f1df694	0.61704373
88	0xbecde06e	-0.4021029
89	0xbf238c41	-0.63885885
90	0xbd828226	-0.0637248
91	0x3daa72bc	0.08322665
92	0x3e907c23	0.2821971
93	0x3ebe2a79	0.3714178
94	0xbf25896c	-0.64662814
95	0xbed6783d	-0.4188861
96	0xbf1bae2d	-0.60812646
97	0x3e145ab2	0.14487723
98	0x3e4c2fe0	0.19940138
99	0xbf4386cc	-0.7637756
100	0x3ee43f25	0.44579425
101	0xbda27ba4	-0.07933739
102	0xbeb032f7	-0.34413883
103	0x3e8cd68b	0.27507433
104	0x3f117153	0.56813544
105	0xbe3b05f8	-0.18263996
106	0xbe6252b7	-0.22101866
107	0xbec43a52	-0.38325745
108	0x3c9d9429	0.019235687
109	0x3ee3d095	0.44495073
110	0xbb223f5f	-0.002475701
111	0xbe3817d8	-0.17977846
112	0xbe879374	-0.26479685
113	0xbea61434	-0.3243729
114	0x3eee5875	0.46551862
115	0x3dd65a7e	0.10466479
116	0x3f0d3b2c	0.55168414
117	0x3de45cbc	0.111505
118	0x3de34d68	0.110987484
119	0x3f26b75a	0.6512352
120	0x3e830775	0.25591627
121	0x3e5ed55e	0.2176108
122	0xbe89a496	-0.26883382
123	0x3f05cf4c	0.52269435
124	0x3f2e7faa	0.6816355
125	0xbe2a6d6b	-0.16643302
126	0xbde08c15	-0.109642185
127	0xbf38eb3d	-0.72233945
128	0x3e1237b0	0.14279056
129	0x3f0dbc19	0.5536514
130	0x3ba6775e	0.0050801476
131	0xbd028408	-0.031864196
132	0xbf2f09d4	-0.6837437
133	0xbe4ef586	-0.20210847
134	0x3f31bbd4	0.6942723
135	0x3f0e2546	0.55525625
136	0x3f521945	0.8206981
137	0xbd0468f8	-0.03232667
138	0x3d23f088	0.04002431
139	0x3f440813	0.7657482
140	0x3d4c5ed8	0.049895138
141	0x3de52688	0.1118899
142	0x3e8933f1	0.2679744
143	0x3e40f655	0.18843968
144	0xbe63ea0e	-0.22257254
145	0xbdd91d7b	-0.10601326
146	0xbd235b00	-0.039881706
147	0x3e92fc6a	0.28708202
148	0x3e24ce10	0.16094232
149	0xbc8f2af4	-0.017476536
150	0x3eb1c364	0.34719384
151	0xbe26b144	-0.16278559
152	0x3eaabd1f	0.33347413
153	0x3cae56d1	0.021281632
154	0xbee1ebb3	-0.44125137
155	0x3e80350b	0.2504047
156	0xbeb1b851	-0.34710935
157	0xbd68da8c	-0.056849048
158	0x3d8940b4	0.06701794
159	0xbef69f9f	-0.48168656
160	0xbef5e634	-0.48027194
161	0xbe51d466	-0.2049118
162	0x3d9ec279	0.077519365
163	0x3d2621be	0.040559523
164	0xbecc74e5	-0.39932933
165	0xbd430aac	-0.0476176
166	0x3dab4940	0.08363581
167	0x3efa6b70	0.48910093
168	0x3db91c55	0.09038607
169	0xbec3d464	-0.3824798
170	0x3da93f74	0.08264056
171	0x3d9c592c	0.07634196
172	0x3e8e16b7	0.27751705
173	0x3ed55db1	0.41673043
174	0xbf0a235f	-0.5396022
175	0xbe0570c1	-0.13031293
176	0xbeed0bd2	-0.4629808
177	0x3c7096d0	0.014684394
178	0x3d9b6194	0.07586971
179	0xbee1b564	-0.44083703
180	0x3dce0402	0.10059358
181	0xbdee7293	-0.11642947
182	0xbe939858	-0.28827167
183	0x3e4fd6e4	0.20296818
184	0x3f16c9ba	0.5890156
185	0xbde4ab24	-0.11165455
186	0xbe09c13b	-0.13452618
187	0xbec48b9d	-0.38387766
188	0x3eb75f82	0.35815054
189	0x3f16ff0f	0.5898294
190	0xbca4d192	-0.020119462
191	0xbe0d3bf8	-0.13792408
192	0xbeb36610	-0.35038805
193	0xbedaaa62	-0.42708117
194	0x3ee9cb60	0.45662975
195	0x3edf97cd	0.43670502
196	0x3ed25249	0.41078404
197	0x3e56bdec	0.20970887
198	0x3ddba45c	0.107247084
199	0x3f34845d	0.7051447
200	0xbe1789a8	-0.14798605
201	0xbd20ff34	-0.03930588
202	0x3ead3289	0.33827618
203	0xbf280234	-0.6562836
204	0xbf6de12f	-0.9292173
205	0x3e06fd2e	0.13182518
206	0xbcccf7e8	-0.025020555
207	0x3ebdd63e	0.37077516
208	0xbebeee46	-0.37291163
209	0xbe8518f1	-0.2599559
210	0x3d5e8bc2	0.054332502
211	0x3dbaea10	0.09126675
212	0x3f4a5a6e	0.79044235
213	0x3e4aabe9	0.19792141
214	0xbf43beb3	-0.7646286
215	0xbe8e468a	-0.27788192
216	0xbf1e7cae	-0.61908996
217	0xbda40c24	-0.08010128
218	0xbd4fa560	-0.050694823
219	0xbf3a290c	-0.7271888
220	0xbe1248fc	-0.14285654
221	0x3d365d20	0.044522405
222	0x3ead3651	0.33830503
223	0x3dd66324	0.10468128
224	0xbe913546	-0.28360957
225	0x3c9da720	0.01924473
226	0x3d52cf70	0.05146736
227	0x3e326b4e	0.17423746
228	0x3de2c828	0.11073333
229	0xbd8f8275	-0.070073046
230	0x3dd8743c	0.10569045
231	0x3dfe7b8c	0.124259084
232	0x3dee9622	0.11649729
233	0x3ed03572	0.40665776
234	0xbee5f42b	-0.44912848
235	0x3d99bd8f	0.075068586
236	0xbe5fad38	-0.21843421
237	0xbbb5b640	-0.0055454075
238	0xbd9fc228	-0.07800704
239	0xbec3f5be	-0.38273424
240	0xbce5c98d	-0.028050208
241	0x3d5f19c0	0.054467916
242	0xbea54a02	-0.32283026
243	0x3f0a4606	0.540131
244	0x3f2f8bf7	0.68572944
245	0x3e1ed69a	0.15511551
246	0xbd8836cc	-0.06651077
247	0xbef7d34a	-0.48403388
248	0x3e1c1ecf	0.15246128
249	0x3ecc023d	0.39845458
250	0x3e0a5fc0	0.13513088
251	0x3e4ec990	0.20194077
252	0xbee47eb6	-0.44627923
253	0xbecb542f	-0.39712664
254	0x3f41102c	0.754153
255	0x3de799c7	0.113086276

bias f4 [40]
0	0x3e49a8ca	0.19693294
1	0xbf189b9b	-0.59612435
2	0x3e89d56b	0.26920637
3	0x3e04fe40	0.12987614
4	0xbe17fe64	-0.14843136
5	0x3dd4bb4f	0.10387289
6	0x3e009f7f	0.12560843
7	0xb9b0374c	-0.00033610535
8	0xbe58065e	-0.21096179
9	0x3ecd31e9	0.4007714
10	0xbe2a9c6e	-0.16661236
11	0x3d83f3bb	0.06442972
12	0x3ebaf525	0.36515155
13	0x3f026c2b	0.509463
14	0xbe6e4af2	-0.23270777
15	0x3e83c053	0.2573267
16	0x3e0620f6	0.13098511
17	0xbd5d8117	-0.054078188
18	0x3ec32ac4	0.38118565
19	0x3c5db3bf	0.013531624
20	0x3ea4efab	0.32214102
21	0x3e2048b4	0.15652734
22	0x3bdb9b9b	0.006701899
23	0xbe4132bf	-0.18867014
24	0xba106099	-0.0005507558
25	0xbdaffc41	-0.085930355
26	0xbc1e77ba	-0.0096721
27	0xbecd7e54	-0.40135443
28	0x3e42704d	0.18988152
29	0xbd45110a	-0.048111953
30	0xbca82565	-0.020525644
31	0x3e7f2cd7	0.24919449
32	0x3e8e2539	0.27762774
33	0x3f10dfa3	0.5659124
34	0x3deba467	0.11505967
35	0xbe227360	-0.15864325
36	0xbe717446	-0.23579511
37	0x3e93e9f9	0.28889444
38	0x3eee0e24	0.46495163
39	0x3d5c9cb3	0.053860378

weight f4 [20, 40]
0	0xbf13f7e5	-0.5780013
1	0x3f097936	0.5370058
2	0xbf24ab07	-0.64323467
3	0xbf1d7fc5	-0.61523086
4	0x3f0e2540	0.5552559
5	0xbf1f74d7	-0.6228766
6	0xbf280f69	-0.65648514
7	0x3f41d293	0.75711936
8	0x3f2be085	0.67139465
9	0xbf3012ee	-0.68778884
10	0x3f0ef8e1	0.5584851
11	0x3f36a83e	0.7135047
12	0xbf403895	-0.7508634
13	0xbf124063	-0.57129496
14	0x3f2d0399	0.67583615
15	0xbf25a63a	-0.64706767
16	0xbf2d7dfc	-0.6777036
17	0x3f23b81f	0.6395282
18	0xbf316294	-0.69291043
19	0x3f40bd32	0.7528869
20	0xbf2e720d	-0.6814278
21	0x3f490d4c	0.78535914
22	0x3f427e8f	0.75974363
23	0x3f1d5925	0.6146415
24	0x3f0d9aa8	0.5531411
25	0x3f700be3	0.9376814
26	0x3f43a9e0	0.76431084
27	0x3f03c494	0.5147183
28	0xbf024c13	-0.5089733
29	0x3f332285	0.6997455
30	0x3f1b2162	0.60597813
31	0xbf52ffa1	-0.8242131
32	0xbf3b1cbd	-0.73090726
33	0xbf086ef7	-0.5329432
34	0x3f58e6f8	0.8472743
35	0xbf2c9256	-0.6741079
36	0x3f0c31e9	0.54763657
37	0xbf50ab4f	-0.81511396
38	0xbf14efc2	-0.5817834
39	0xbf3d7237	-0.74002403
40	0xbf52b469	-0.82306534
41	0x3f2d737a	0.6775433
42	0xbf201043	-0.62524813
43	0xbf476da0	-0.7790165
44	0x3f4632d0	0.77421284
45	0xbf2ba660	-0.67050743
46	0xbf3623f4	-0.7114861
47	0x3f1c577b	0.61070985
48	0x3f524835	0.8214143
49	0xbf599f9d	-0.85009176
50	0x3f303af5	0.6883996
51	0x3f1359a6	0.5755867
52	0xbf62f7c3	-0.88659304
53	0xbf258a91	-0.6466456
54	0x3f452e33	0.7702362
55	0xbf16a7d5	-0.5884984
56	0xbf55b6de	-0.8348216
57	0x3f369a9d	0.7132967
58	0xbf236a65	-0.6383422
59	0x3f3e26fd	0.7427824
60	0xbf56f8c0	-0.8397331
61	0x3f26975e	0.6507472
62	0x3f287025	0.6579612
63	0x3f44ad43	0.76826876
64	0x3f1a96cf	0.60386366
65	0x3f4e3962	0.8055631
66	0x3f4a86ea	0.7911211
67	0x3f41885d	0.755987
68	0xbf45891d	-0.77162343
69	0x3f45f2c1	0.7732354
70	0x3f42ce95	0.7609647
71	0xbf692d1e	-0.9108447
72	0xbf4cf7b2	-0.80065453
73	0xbf3031f1	-0.68826205
74	0x3f3187fb	0.69348115
75	0xbf2f4ba5	-0.684748
76	0x3f4c5679	0.79819447
77	0xbf5bb0cc	-0.85816646
78	0xbf459203	-0.7717592
79	0xbf2cfa22	-0.6756917
80	0xbeafaf3a	-0.34313375
81	0xbf751cd8	-0.9574714
82	0x3dc42fdd	0.09579442
83	0xbb7d17f2	-0.003861901
84	0xbf7d56e6	-0.9896072
85	0x3f1b088f	0.60559934
86	0x3f5ade77	0.85495704
87	0x3db95c3b	0.09050795
88	0xbe28ab68	-0.16471636
89	0x3f7456e3	0.9544508
90	0xbf3e8f4b	-0.744374
91	0x3e2f7a87	0.17136584
92	0x3f7997fd	0.9749754
93	0x3f74474b	0.95421284
94	0xbf764149	-0.9619337
95	0x3f8322e4	1.0245023
96	0x3f48c09b	0.7841889
97	0xbeddde72	-0.43333775
98	0x3f3a4b5b	0.72771233
99	0x3eeaa218	0.45826793
100	0x3f6156cf	0.88023084
101	0x3e965996	0.29365224
102	0xbb7c0b78	-0.0038458984
103	0x3e379c11	0.17930628
104	0x3edbe128	0.42945218
105	0xbedfb4f4	-0.43692744
106	0xbf2c4d82	-0.6730577
107	0xbf466580	-0.77498627
108	0x3f5fcdec	0.87423587
109	0xbf37687d	-0.7164381
110	0xbe8b9cc2	-0.27268034
111	0x3f11af90	0.5690851
112	0x3f661774	0.89879537
113	0x3f6db477	0.9285349
114	0xbd532f1a	-0.05155859
115	0xbe3d4e7d	-0.18486972
116	0xbf532614	-0.8247998
117	0x3f486281	0.78275305
118	0x3f61161e	0.87924373
119	0xbde3b506	-0.11118512
120	0xbdd21fef	-0.10259997
121	0xbf02d87e	-0.5111159
122	0xbd73538d	-0.059405852
123	0xbe65bfb8	-0.22436416
124	0xbdc70786	-0.09718232
125	0x3df4f671	0.119610675
126	0x3d90801e	0.070556864
127	0x3e99dc74	0.30051005
128	0xbb15ec22	-0.0022876342
129	0x3e85a6ad	0.26103726
130	0xbc9adfd4	-0.018905558
131	0x3ecd102b	0.40051398
132	0x3d971016	0.07376115
133	0x3eb1f216	0.3475501
134	0xbda020e4	-0.078187734
135	0x3ea43d64	0.32078087
136	0x3e204c49	0.156541
137	0xbcfded8f	-0.030997066
138	0x3ea27345	0.3172857
139	0x3e98904c	0.2979759
140	0x3e1c1e3a	0.15245906
141	0x3e9cf56b	0.3065599
142	0xbd122669	-0.035681162
143	0x3c9e2835	0.019306282
144	0x3e1dcec5	0.15410908
145	0x3d338395	0.04382666
146	0xbd4bf63e	-0.04979538
147	0xbe5b1ff9	-0.21398915
148	0x3dc9ed1f	0.098596804
149	0x3be7c297	0.0070727575
150	0x3e67da1a	0.22641793
151	0xbeab108c	-0.33411062
152	0x3d9caaf7	0.076497965
153	0x3e668e13	0.22515135
154	0x3e0201f5	0.12696059
155	0xbe841aaf	-0.25801608
156	0xbe2d6de9	-0.16936459
157	0x3dff7b53	0.12474694
158	0x3e89716c	0.26844347
159	0xbe435ab0	-0.19077563
160	0x3f23b7e1	0.6395245
161	0x3e429463	0.19001918
162	0x3e5968ac	0.21231335
163	0x3ed88d14	0.42295134
164	0xbf286033	-0.6577179
165	0x3f2ede0c	0.68307567
166	0x3e842e7b	0.25816712
167	0x3e56a28f	0.20960449
168	0xbf47a5b9	-0.7798725
169	0x3f1f196f	0.62148184
170	0xbf12c1bb	-0.5732686
171	0x3d867e88	0.06567103
172	0x3f31a937	0.69398826
173	0xbd58f933	-0.05297203
174	0xbeb6c3c1	-0.35696223
175	0x3dec78e4	0.115464956
176	0x3f1fb5e4	0.6238692
177	0xbefee785	-0.4978601
178	0x3e963bc7	0.29342481
179	0xbed65684	-0.4186288
180	0x3f4773f8	0.7791133
181	0x3cddf010	0.02709201
182	0xbf6bf75c	-0.92174315
183	0xbed0f781	-0.4081383
184	0xbf1fe46c	-0.6245792
185	0xbf38b906	-0.72157323
186	0xbf08585f	-0.53259844
187	0xbe73723a	-0.23774043
188	0x3efd753d	0.49503508
189	0xbeee29c1	-0.4651623
190	0xbf50786b	-0.81433743
191	0x3e2f4af2	0.17118433
192	0x3ee1cd96	0.44102162
193	0x3ea756e7	0.3268349
194	0xbea726cc	-0.32646787
195	0xbccf210f	-0.025284318
196	0xbeccf922	-0.40033823
197	0x3e07233c	0.13197035
198	0xbe425676	-0.18978295
199	0x3f4c7843	0.79871005
200	0xbe8b8d8e	-0.27256435
201	0xbeb15af3	-0.346397
202	0xbdc234bf	-0.09482717
203	0xbe360409	-0.17774977
204	0xbcb583bd	-0.022157544
205	0xbd3219f9	-0.0434818
206	0xbcabd744	-0.02097667
207	0x3dbbb5ee	0.0916556
208	0x3c0992d8	0.008396827
209	0x3e49dfe5	0.19714315
210	0xbe3045be	-0.17214105
211	0x3e87517a	0.2642935
212	0x3e8d3bea	0.27584773
213	0x3ea6ef29	0.3260434
214	0xbe111c7c	-0.14171022
215	0x3db65651	0.08903182
216	0x3e418c7a	0.18901244
217	0xbd5130a9	-0.051071797
218	0x3e5af3ab	0.21382014
219	0x3d2596aa	0.040426888
220	0xbda8d612	-0.08243956
221	0x3e45b4c6	0.19307241
222	0x3d95bb29	0.073110886
223	0x3e62e82d	0.2215888
224	0x3b8fcca3	0.0043884083
225	0x3e1f8239	0.1557702
226	0xbd4b0991	-0.04956967
227	0xbd8f7701	-0.0700512
228	0x3e3d984a	0.18515125
229	0x3dcf8b5b	0.10134002
230	0x3d38f21c	0.04515277
231	0xbea49f20	-0.32152653
232	0x3e0f8341	0.14014913
233	0x3d3c8e03	0.04603387
234	0x3e82a0b9	0.25513247
235	0xbdb332d1	-0.08749927
236	0xbe161671	-0.14656998
237	0x3e610f71	0.21978547
238	0x3eaa7fdc	0.33300674
239	0xbc3601c2	-0.0111088175
240	0x3e31b77b	0.17355148
241	0x3e0a0bd6	0.13481078
242	0x3de54e35	0.111965574
243	0xbd85062b	-0.06495317
244	0xbc6d0ef5	-0.014468898
245	0x3c2d5ca8	0.010581173
246	0x3de6cc6f	0.11269461
247	0x3c3df83c	0.011594828
248	0xbeb66670	-0.3562503
249	0xbbb8855f	-0.0056311334
250	0xbc53e137	-0.012932113
251	0x3e0bc3d6	0.13648924
252	0x3ea45a56	0.3210017
253	0x3db5de63	0.088803075
254	0xbdc6c1c5	-0.09704927
255	0xbb88114a	-0.0041524516

bias f4 [20]
0	0x3f59d934	0.8509705
1	0x3f37c6b3	0.71787566
2	0x3f2e4e97	0.6808867
3	0x3e582cbe	0.21110818
4	0xbf1bc4b2	-0.6084701
5	0x3e3e7117	0.18597828
6	0xbdb3fe3e	-0.08788727
7	0x3ecbf400	0.39834595
8	0xbe3aab7e	-0.18229482
9	0xbd6caeb7	-0.05778381
10	0xbe0388f0	-0.12845206
11	0x3de4a42d	0.111641265
12	0x3f3c4b31	0.73552233
13	0xbf50f166	-0.81618345
14	0x3f4a9b1a	0.79142916
15	0x3f2479cc	0.6424835
16	0xbd80f9bd	-0.06297634
17	0x3f28fdbc	0.6601217
18	0xbebd30d3	-0.36951312
19	0xbe29cdbf	-0.16582392

weight f4 [1, 20]
0	0x3f5d35f4	0.8641045
1	0x3f3c0d9e	0.7345828
2	0x3f8df2f3	1.1089767
3	0xbf37986d	-0.7171696
4	0xbf6675a2	-0.90023243
5	0xbf04304a	-0.51636183
6	0xbea267d0	-0.31719828
7	0x3f46c508	0.77644396
8	0xbf13514f	-0.5754594
9	0xbecf922d	-0.4054121
10	0xbe03f0b8	-0.12884796
11	0xbe453eaa	-0.19262186
12	0x3f3f670c	0.7476661
13	0xbf445b35	-0.7670167
14	0x3f4681dc	0.775419
15	0x3f502d1d	0.8131884
16	0xbf032f86	-0.5124439
17	0x3f881170	1.0630322
18	0xbf67cae9	-0.9054399
19	0xbd491379	-0.049090836
